models/model_epoch_800.safetensors (safetensors, 367960 bytes, 4 tensors)

layer_one.W f4 [1433, 64]
00000000: d0e3 c6be 81b4 743e eaae b83e db39 573e
00000010: a051 d13d d546 e3be d38a f63d 46e2 f43e
00000020: ccf0 3ebf 7ea3 2f3e 4fae 2d3c b9bb 893e
00000030: 149f 64be 85fc 4cbe 9777 323e 028f c43e
00000040: 536d dbbe cabf 5a3e 869b db3e b182 0b3e
00000050: 9f08 f63d 9176 fcbe 4104 473c 1609 dd3e
00000060: 6194 41bf 6e82 fe3e cdca 993e b9c1 c2bd
00000070: c9de 37be e88b 0abf a55a 243c c4ac 1a3f
00000080: ce8b 2cbf 5f0a 5d3e 5b89 253e 27cf dc3e
00000090: 4b4c bcbd 1776 39be 31d1 553e 7ff4 ca3e
000000a0: c7cf 14bf b7e0 453e 4997 67be f727 3e3d
000000b0: ad48 7abe 7330 d5be 359c cb3c 25c7 963e
000000c0: 19c3 13bf 2c09 913e 6144 d13d 0d21 733e
000000d0: 783e 933d 5cb9 9cbe e9de 423e 6235 cb3e
000000e0: 1859 d4be e97b 783e 3817 b53e 83a2 923e
000000f0: 155a da3d 7e66 81be cf65 443e 2b34 143f
00000100: af7d c2be 7783 bcbe d9ff 06be 363f bfbe
00000110: a08c 33be b85f d4bc 9c4b 0dbe f4b4 8f3e
00000120: 387e 27be 9c4d f8be 923b 6ebe e5b5 0cbf
00000130: 2ce3 a4be ef04 f0bd f8f4 10be f805 1a3e
00000140: d8f0 22be 3720 c1be 1db9 0e3c 971e 3bbf
00000150: 786f 99be 56eb 793d 5dae 05bf 0863 c63e
00000160: b8f5 8bbe 3074 dbbe ceef a5be 734b 0dbf
00000170: 5141 03bf 62f8 d6bc 9588 0abf f7aa 233e
00000180: 6345 ccbd ac17 95be f587 bfbb 4bd6 15bf
00000190: c596 cebe 5ea0 bcbc c9a9 ebbe db83 d03d
000001a0: 2f05 9cbe 35b3 0cbf 678d 24be 4dd0 10bf
000001b0: 0aa3 9bbe 32cb ce3c e015 a5be e9ee 9b3e
000001c0: da74 adbe 3576 bdbe 2a97 bcbd ea68 10bf
000001d0: df79 f1bd c173 30be 31fe eabe f984 853e
000001e0: e86e 6a3b 2160 ebbd 7f7d 073d 60fd dbbe
000001f0: 82f8 3dbe f9d6 b63c 19a2 a9be 883e 9e3e
00000200: fc0b 2dbe 1ca3 2d3e 023c ac3e 9550 503e
00000210: bd84 f93c bf10 1cbe 678b 6e3d 242a 933e
00000220: 250e 883d 540d cb3e d5bf 4c3e 3550 1fbe
00000230: cf9d ffbe 9621 b2bd 0a02 a63d f4cc 123e
00000240: 3731 fe3d c1e4 163e 817b fd3e 8b34 ae3e
00000250: 510f a5be a7ee b1be df85 96bb 8069 553e
00000260: 5c0f 78be f42a e23d fb36 833e cca4 f83d
00000270: 9e01 aebe 6f94 31be db24 8b3d fe4c 473e
00000280: 005f 78be 6adb ac3e 814c 4f3e bbb1 213e
00000290: e492 19bd 3a12 a1be 0639 f7bd 7118 943d
000002a0: 3033 de3c e8ed 073e d7ee b83e d99e cf3c
000002b0: 8c79 b7bd f2b5 a0bd 54a4 9b3e 04c8 ff3d
000002c0: d1f8 423d 4aaa 433e afb3 9d3e 0d63 d43d
000002d0: 161d d1bd aead 8a3e c469 bd3e 309e 7d3e
000002e0: be5b 0bbe 28cb c63e d7d2 b03e 9bb8 a83e
000002f0: 2c43 2dbc 3a76 99be 1335 c43d ef5c db3d
00000300: 4025 48be 0ad4 773a eb1f 38bd a048 32be
00000310: 065a aabe 44bb c8be 7651 19be d395 ebbd
00000320: 0e5f 89bd 6974 edbe 6191 91bd a91a 11be
00000330: 6fae 94be fad3 bcbd ef01 3abe 7151 f23d
00000340: 24d3 ea3d 909d bbbe ee4b b9bb 6e06 393c
00000350: bb32 7bbe c774 41be 76cb e4be 5bd5 06be
00000360: bc38 00bd 13cd a8be af03 993d cdc1 15be
00000370: 14a5 50be 8f71 a63d 97bf 5abe 25ba 5dbc
00000380: 3cfe 21bd e0c2 bfbc 246d 9a3d 3ead 5ebe
00000390: a2bc a7be 9734 a3bd d32c 44bc 23a6 00bd
000003a0: bf0b 3dbd 9a92 59be 26b2 c63d 524e 56be
000003b0: 6b08 b9be abcb 1abd d2f4 8ebe 3d22 5fbe
000003c0: 8414 8a3e a0a6 37be 323f 373e 495f a3be
000003d0: 2644 9abe dd8e bebe 986c debe a3a4 adbd
000003e0: 37d2 8d3e c1ea a0be 7199 1f3e 083b d5be
000003f0: c609 fabc 6c58 c7bd fcef f1be 07a6 023d
-0.38845682 0.23896982 0.3607095 0.21018164 0.10220647 -0.44389978 0.12038197 0.47828883
-0.74586177 0.17152211 0.01060064 0.26901034 -0.22326308 -0.20018204 0.17428432 0.38390356
-0.42856845 0.21362224 0.42892092 0.13624074 0.12013363 -0.4930921 0.01214701 0.43170995
-0.75617033 0.49708885 0.30037537 -0.09509606 -0.1795608 -0.5411973 0.010031377 0.6041987
-0.67400825 0.21585988 0.16165678 0.43126795 -0.09194239 -0.18111454 0.20880581 0.3963966
-0.58129543 0.19324003 -0.22616304 0.046424832 -0.24441786 -0.41638526 0.024854759 0.2944881
-0.5771957 0.2832731 0.1021812 0.23743077 0.07189649 -0.30610168 0.19030346 0.39689165
-0.41474223 0.24266018 0.35369277 0.28639612 0.10661713 -0.25273508 0.19179462 0.578921
-0.37986514 -0.3681905 -0.13183536 -0.37352914 -0.17534113 -0.025924549 -0.13798374 0.28067744
-0.16356742 -0.4849671 -0.23264912 -0.5496505 -0.32204568 -0.11719691 -0.14155948 0.1504134
-0.15912187 -0.3771989 0.008711127 -0.7309355 -0.29967856 0.06101545 -0.5221918 0.3874743
-0.27335906 -0.42862082 -0.3240952 -0.5519325 -0.5127154 -0.026241485 -0.5411466 0.15983187
-0.09974172 -0.29119623 -0.0058450648 -0.5853011 -0.40349403 -0.023025688 -0.46027973 0.101813994
-0.30472705 -0.5496095 -0.16069566 -0.5656784 -0.30397826 0.025243375 -0.32243252 0.3045571
-0.33878213 -0.37004247 -0.0920852 -0.56410086 -0.11790823 -0.17231657 -0.45897058 0.26078013
0.0035771672 -0.114929445 0.033078667 -0.42966747 -0.1855183 0.022319304 -0.33131483 0.30907083
-0.16899103 0.16956753 0.33639532 0.2034324 0.030458802 -0.15240763 0.058238413 0.28743088
0.06643323 0.39658606 0.19995053 -0.1555794 -0.49925086 -0.08697812 0.08105858 0.14335996
0.12411731 0.147357 0.49508289 0.34024462 -0.32238248 -0.3475239 -0.0045935954 0.20841026
-0.24224609 0.11043349 0.25627884 0.121408075 -0.3398561 -0.17341779 0.06794139 0.19462964
-0.2425499 0.3376115 0.20244028 0.15790455 -0.0374936 -0.31459218 -0.12071423 0.07231224
0.027124017 0.13274348 0.3611972 0.0253443 -0.0895873 -0.07847203 0.3039881 0.12489322
0.04760057 0.19107929 0.3080115 0.10370455 -0.10210626 0.27085632 0.36994755 0.24767375
-0.13609216 0.3882687 0.34535858 0.32953343 -0.010575097 -0.29973012 0.095804356 0.10711085
-0.1954546 0.00094538985 -0.044952314 -0.17410517 -0.33271807 -0.39205372 -0.14972481 -0.11503186
-0.06707583 -0.46377876 -0.07107807 -0.14170326 -0.29039332 -0.09220119 -0.181648 0.1183194
0.11466053 -0.36643648 -0.0056548035 0.011293037 -0.24531071 -0.18892203 -0.44686478 -0.13167326
-0.031304106 -0.3296896 0.07471406 -0.1462471 -0.20375472 0.08127128 -0.21362148 -0.01353315
-0.039549097 -0.023408353 0.07540348 -0.21745774 -0.32761103 -0.07969015 -0.011973578 -0.03140844
-0.04615378 -0.2124733 0.09701948 -0.20928314 -0.36139235 -0.03779189 -0.27921158 -0.21790405
0.26968777 -0.17934656 0.17895201 -0.31908634 -0.30130118 -0.3721837 -0.43442225 -0.084786676
0.27699444 -0.31429103 0.15585877 -0.416466 -0.030522238 -0.09733662 -0.47253406 0.031896617

layer_one.a f4 [8, 16, 1]
00000000: 69da 1bbd 8773 d33d 491f a3be a2ac c6bd
00000010: e379 373f d6c6 cc3e ff21 8b3e 275f 8abe
00000020: 5870 e2bd 9686 b5be 4258 6bbf 9486 b73e
00000030: 2864 633f c51e f83e 1533 68be 71dc 05bf
00000040: 8d7f f53d ebb2 a8bd cf1c bcbb 18e5 e5be
00000050: 20de 203e b29e c43e d628 6abe 5949 1ebd
00000060: 1185 b33e 73a1 d4be c5f5 15bd d0ab 21bf
00000070: c6f1 5e3f bee6 f33e f766 dfbe 8a9b f1be
00000080: 98cd b3bd 0ffa e93d 2ed2 51be 106b a9bd
00000090: 6670 2e3f bdd2 bd3e b031 153d 4f8f 1bbe
000000a0: 8219 34bf e3b7 06be 8d18 14bf b551 133e
000000b0: 85a7 4c3f 5c57 013f 7096 06bf 7e0d 24bf
000000c0: aefd 873e 3a66 d23e eea5 abbe d6b7 2bbf
000000d0: a595 b3be 89f7 c43a b30e 28bf 3f27 d1be
000000e0: 3379 583f ae8b bd3e d3de 21bf 338a d1be
000000f0: d09d 9cbd a0af e4be 273e 42bf 96ce 15bf
00000100: 209e 1a3f 7fc6 c33e 143e cfbe 7a05 0dbf
00000110: 5a24 3ebe 71b9 20be 8769 39bf 7e8b 2cbd
00000120: dc7f aa3b 463b eb3e 0934 37bf 1d1a 03bf
00000130: ce99 98be cab7 71be 78ad 78bf d31b 47bf
00000140: 4db4 1d3e 6481 113e a69f b9be 2e52 51bf
00000150: 428c 7fbe 67b0 9c3e c4ab 37bf f7dd 9fbc
00000160: fed2 0dbf 7b57 c63e 808c 14bf 6c4b 3dbf
00000170: 3a16 b3be 48ae 283f b9ac ccbe 3fcf 6dbf
00000180: b80c 0a3e 17c8 edbd e9a6 65bf 4ea7 e4be
00000190: 8f27 0e3e 4195 873e c32e 9abe 6226 63be
000001a0: 9f01 db3e c303 2dbf 9e2e 28bf b480 8ebf
000001b0: a62f dd3e e3e3 113e 571c 54be 56dc 21bf
000001c0: 5294 fd3e 3199 9b3e 89d3 0fbe b567 87be
000001d0: c7c2 c9be df95 82bc 93d2 49bf 5ecb f1bd
000001e0: 53a8 173f 7fcf f03e beee d93e eece 64bf
000001f0: f6a4 973e 11bf 66bd 4955 57bf df08 08bf
-0.03805009 0.103247695 -0.31859806 -0.09700896 0.7167036 0.3999545 0.27174374 -0.2702572
-0.11056584 -0.35454243 -0.91931546 0.35844862 0.888247 0.48460975 -0.22675736 -0.5228949
0.11987219 -0.08237251 -0.005740739 -0.44901347 0.15709734 0.38402325 -0.2286714 -0.03864417
0.3506246 -0.41529426 -0.036611337 -0.6315279 0.87087667 0.4763698 -0.43633243 -0.4718898
-0.08779448 0.11424648 -0.20490333 -0.08272374 0.68140256 0.37074843 0.03642434 -0.15191387
-0.7035142 -0.13156085 -0.5784996 0.14386638 0.79943115 0.50523925 -0.525733 -0.6408309
0.2656073 0.41093618 -0.33525032 -0.67077386 -0.35075107 0.0015027385 -0.6564743 -0.40850255
0.84559935 0.3702063 -0.6323063 -0.4092575 -0.07647288 -0.4466524 -0.75876087 -0.5851835
0.6039753 0.38237378 -0.4047705 -0.5508648 -0.18568555 -0.1569574 -0.72426647 -0.042125218
0.0052032303 0.4594366 -0.71563774 -0.5121172 -0.29804844 -0.23605266 -0.9713969 -0.7777683
0.1540081 0.14209515 -0.36254615 -0.8176602 -0.24955848 0.30603334 -0.7174647 -0.01951502
-0.55400074 0.38738617 -0.58026886 -0.7394321 -0.34977895 0.6589093 -0.39975527 -0.9289436
0.13481414 -0.1161043 -0.8970781 -0.44658893 0.13882278 0.2648106 -0.301138 -0.2218261
0.42774674 -0.67583865 -0.6569613 -1.1133027 0.43200415 0.14247088 -0.20713936 -0.6322683
0.49527222 0.30390313 -0.14045538 -0.2644631 -0.39406416 -0.015940605 -0.78836936 -0.11806367
0.5924122 0.47033307 0.42564958 -0.8937825 0.29618043 -0.05633456 -0.8411451 -0.53138536

layer_two.W f4 [8, 7]
00000000: c48b e7bf 9544 1bc0 6b18 3d40 e3ae edbf
00000010: 5734 cbbf 1f05 313f a14c 1640 759f 3340
00000020: 4a85 37c0 99bc 3940 07a6 99bf 390e 0ac0
00000030: 7fcd b53e bbff 89bf ede0 1d40 6a01 1440
00000040: e06f 07c0 6e64 22c0 9bb7 50bf cb38 af3f
00000050: 9b39 2840 baec 443f 5b50 cbbc bf56 d5bf
00000060: f3cf 3640 8cd8 1ec0 0181 353f 0400 2640
00000070: 7998 ddbf ae51 a43f a8e5 e43f 8e83 1840
00000080: a49f 28c0 9829 25c0 2250 03c0 c9d0 0ac0
00000090: eba8 1c40 74b7 2140 5727 3fc0 8b8b e4bf
000000a0: 6dbc 823f 35e1 83bf 3fd7 cc3d 9f83 383f
000000b0: 848b 03c0 74d8 5940 1bd0 ddbf 2948 0c40
000000c0: cc46 e63e a07e 3040 6613 f93f 0165 39c0
000000d0: 87ef c23d 6368 b63f cbde ba3f 5f5a 0fbe
-1.8089528 -2.426061 2.9546154 -1.8568996 -1.5875348 0.6914844 2.348427 2.8066075
-2.8675103 2.902136 -1.2003793 -2.157118 0.35508344 -1.0781168 2.4668534 2.3125863
-2.1162033 -2.5373797 -0.8153016 1.3689207 2.628516 0.76923716 -0.02481859 -1.6667098
2.8564422 -2.481967 0.7089997 2.593751 -1.7312156 1.2837427 1.7882586 2.3830295
-2.6347437 -2.5806637 -2.051766 -2.1689932 2.44781 2.526822 -2.986776 -1.7855085
1.0213753 -1.0303103 0.100019924 0.7207584 -2.0553904 3.4038363 -1.7329134 2.1919043
0.4497589 2.7577286 1.9459045 -2.8967898 0.095183425 1.4250606 1.4599241 -0.13999318

layer_two.a f4 [1, 14, 1]
00000000: 44cd 2b3d 1cd5 343d dc35 90bd 2f46 22bd
00000010: 53fc ac3c fca6 493d 8058 d8b7 c2b5 b03d
00000020: 32fe 003e d642 3c3d 5151 ab3d 9867 043e
00000030: ace5 973d 18fc fb3d
0.041943803 0.04414855 -0.07041523 -0.039617714 0.021116411 0.049231514 -2.5790418e-05 0.086284176
0.12596968 0.045962177 0.08365119 0.12930143 0.07416853 0.123039424
