models/model_epoch_1000.safetensors (safetensors, 367960 bytes, 4 tensors)

layer_one.W f4 [1433, 64]
-0.4539076 0.115372874 0.36815563 0.23887621 0.122142404 -0.31473204 0.18973882 0.489115
-0.6567684 0.3325815 0.009821712 0.33853087 -0.14109169 -0.13849255 0.22817428 0.36327118
-0.37968916 0.1715521 0.46143618 0.14510675 0.1465126 -0.4782652 -0.013923429 0.42667845
-0.6970978 0.48121336 0.2393112 -0.19534773 0.06163768 -0.57219905 -0.029954875 0.5692394
-0.6254351 0.2184387 0.22346877 0.4629872 -0.18701737 -0.11944359 0.17009503 0.30739352
-0.53823704 0.24461065 -0.21827126 0.054994866 -0.23668236 -0.3437406 -0.03660861 0.44503045
-0.5526926 0.32416636 0.093100905 0.16875602 0.03592361 -0.2927467 0.29440227 0.45653492
-0.3690361 0.30143487 0.38054106 0.30668473 0.2089603 -0.15504204 0.2276616 0.54620796
-0.5421936 -0.43341723 0.04154262 -0.50740093 -0.28061008 -0.035221413 -0.060683202 0.50129026
-0.29293388 -0.43882328 -0.2545986 -0.60700536 -0.4184904 -0.019936547 -0.11737897 0.24367191
-0.22802949 -0.40861538 0.09818099 -0.77108186 -0.3457149 0.0009930456 -0.37137347 0.4254657
-0.3699562 -0.50667274 -0.2966695 -0.6606539 -0.5163866 0.04149042 -0.5313464 0.17501757
-0.14790572 -0.27548987 0.04765366 -0.7170547 -0.62195486 -0.14086343 -0.52147603 0.16881925
-0.3430992 -0.5868268 -0.08141895 -0.57814467 -0.42219505 0.033153553 -0.4189551 0.3794823
-0.40142572 -0.43720606 0.016766053 -0.58381283 -0.12018188 -0.14958616 -0.391671 0.34992367
0.021936588 -0.21166873 0.03306735 -0.5214091 -0.33291623 0.041932635 -0.34409958 0.3212768
-0.29497468 0.11352227 0.34834325 0.22933874 -0.059087694 -0.16140522 0.066065155 0.26834825
0.19221133 0.44627172 0.06409315 -0.14662507 -0.52701443 -0.006522755 0.033306822 0.13462195
0.117739454 0.18569888 0.4011007 0.43651506 -0.2465531 -0.37769443 -0.13202116 0.13970414
-0.17811523 0.11266039 0.11748921 0.056046955 -0.34825027 -0.14646621 0.03598302 0.09664413
-0.17200956 0.45221105 0.14451514 0.14219749 -0.1550027 -0.462673 -0.135607 0.09199341
0.13683955 0.19858618 0.31537932 -0.0394366 -0.06819033 -0.047929257 0.16530164 0.08852186
-0.015895769 0.20214315 0.37785852 0.1229035 -0.20091507 0.29203674 0.3312409 0.24398805
-0.15328862 0.4274381 0.373558 0.27037308 -0.0858882 -0.29370898 -0.029192857 0.065458834
-0.20769592 -0.06663829 -0.09320485 -0.049014658 -0.29311302 -0.4496501 -0.26780844 -0.027891055
-0.14893252 -0.53111464 0.0042325268 -0.18947323 -0.22096823 -0.12651199 -0.16589734 0.200564
0.18515897 -0.553362 0.019940134 0.0044521657 -0.2636568 -0.18351422 -0.42051286 -0.15350652
0.004211437 -0.45621064 0.0012108868 -0.19815344 -0.37483084 -0.019334067 -0.37509993 -0.08078223
-0.18101162 -0.027734242 0.035620574 -0.27989897 -0.4034418 -0.025501262 -0.21980141 -0.059026368
-0.107720375 -0.22302678 0.069498815 -0.17581064 -0.27942064 -0.12404824 -0.26546413 -0.10870682
0.16807583 -0.30073154 0.11356267 -0.22312064 -0.30330718 -0.37087685 -0.38038138 -0.03672552
0.16480255 -0.31201282 0.1443763 -0.41506404 -0.01939558 -0.22268102 -0.49499255 -0.037998825
00000000: 9466 e8be 9d48 ec3d e57e bc3e f79b 743e
00000010: cc25 fa3d 8f24 a1be e54a 423e 486d fa3e
00000020: f921 28bf 1f48 aa3e 3feb 203c eb53 ad3e
00000030: 577a 10be fed0 0dbe 85a6 693e aefe b93e
00000040: 9e66 c2be 5bab 2f3e 5d41 ec3e dd96 143e
00000050: 6607 163e 2ddf f4be 181f 64bc 9975 da3e
00000060: 0075 32bf 9961 f63e ff0d 753e 3c09 48be
00000070: cb77 7c3d a37b 12bf ed63 f5bc acb9 113f
00000080: 841c 20bf 65ae 5f3e ffd4 643e a90c ed3e
00000090: 7b81 3fbe d79e f4bd 642d 2e3e af62 9d3e
000000a0: e7c9 09bf 377b 7a3e 8082 5fbe 4c42 613d
000000b0: dc5c 72be c5fe afbe e9f2 15bd 08db e33e
000000c0: 437d 0dbf 22f9 a53e b0ab be3d 61ce 2c3e
000000d0: a324 133d e5e2 95be e5bb 963e f2be e93e
000000e0: 4df2 bcbe ac55 9a3e 47d6 c23e c805 9d3e
000000f0: b0f9 553e 57c3 1ebe 1f20 693e 49d4 0b3f
00000100: 33cd 0abf dde8 ddbe 9828 2a3d 07e5 01bf
00000110: 20ac 8fbe 5444 10bd f38e 78bd 8f54 003f
00000120: 6efb 95be 72ad e0be bf5a 82be b464 1bbf
00000130: 6044 d6be f851 a3bc 6364 f0bd 2185 793e
00000140: 9080 69be 0936 d1be 1d13 c93d 9f65 45bf
00000150: 8b01 b1be 1529 823a aa24 bebe a4d6 d93e
00000160: e66a bdbe 4eb5 01bf 11e5 97be 9d20 29bf
00000170: ea31 04bf dcf1 293d 5106 08bf ce37 333e
00000180: 9974 17be 020d 8dbe 7c30 433d e690 37bf
00000190: 6f38 1fbf 813e 10be 747f 05bf f4de 2c3e
000001a0: b3aa afbe 483a 16bf fabe a6bd 4a01 14bf
000001b0: f329 d8be 05cc 073d 4881 d6be 814b c23e
000001c0: ac87 cdbe 79d9 dfbe f658 893c c274 15bf
000001d0: eb21 f6bd 1d2d 19be 1a89 c8be 3229 b33e
000001e0: 5cb4 b33c b0bf 58be a171 073d 117b 05bf
000001f0: ff73 aabe 8ec1 2b3d d22d b0be 657e a43e
00000200: ec06 97be 5d7e e83d 0c5a b23e c6d7 6a3e
00000210: f005 72bd 6947 25be 2b4d 873d f164 893e
00000220: 0cd3 443e ba7d e43e 4543 833d e224 16be
00000230: 6bea 06bf d6bc d5bb bc6c 083d 56da 093e
00000240: 6221 f13d d927 3e3e 125d cd3e e77e df3e
00000250: 6a78 7cbe 2a61 c1be 8e30 07be 9a0e 0f3e
00000260: d763 36be 7eba e63d 2f9e f03d 7e91 653d
00000270: dc4d b2be 3dfb 15be ee62 133d 5ced c53d
00000280: 4623 30be 3588 e73e c7fb 133e 389c 113e
00000290: 07b9 1ebe 7ae3 ecbe 90dc 0abe 0a67 bc3d
000002a0: ab1f 0c3e 2d5a 4b3e 6679 a13e 4688 21bd
000002b0: 5fa7 8bbd 7851 44bd d544 293e f34a b53d
000002c0: d837 82bc 9dfe 4e3e ac76 c13e d5b4 fb3d
000002d0: aebc 4dbe d785 953e 6898 a93e 01d8 793e
000002e0: b1f7 1cbe 2bd9 da3e ff42 bf3e 576e 8a3e
000002f0: 27e6 afbd 0661 96be dc25 efbc 480f 863d
00000300: 3dae 54be a879 88bd 2fe2 bebd 98c3 48bd
00000310: e912 96be 8a38 e6be 301e 89be c87b e4bc
00000320: c481 18be 21f7 07bf 02b1 8a3b 4505 42be
00000330: 7f45 62be 5c8c 01be fee0 29be a660 4d3e
00000340: 509a 3d3e 22a9 0dbf 7e59 a33c 79e3 913b
00000350: 06fe 86be 27eb 3bbe 764d d7be d030 1dbe
00000360: 1800 8a3b 7194 e9be 9eb6 9e3a bce8 4abe
00000370: d4e9 bfbe 7a62 9ebc 190d c0be 2771 a5bd
00000380: 1c5b 39be ec32 e3bc e1e6 113d eb4e 8fbe
00000390: ec8f cebe 06e8 d0bc 9f13 61be a2c5 71bd
000003a0: 809c dcbd 2261 64be 6555 8e3d b407 34be
000003b0: 3910 8fbe 010d febd eaea 87be aea1 debd
000003c0: 121c 2c3e 7cf9 99be 8c93 e83d bd79 64be
000003d0: 144b 9bbe 92e3 bdbe 59c1 c2be 806d 16bd
000003e0: 00c2 283e 25c0 9fbe 61d7 133e 4683 d4be
000003f0: 7be3 9ebc 7e06 64be aa6f fdbe a8a4 1bbd

layer_one.a f4 [8, 16, 1]
-0.0038048609 0.15458697 -0.3528049 -0.07787491 0.75930315 0.47716638 0.36868256 -0.26451835
-0.06893631 -0.30136168 -0.8069401 0.347422 0.7505161 0.3509016 -0.09305721 -0.46711513
0.061171304 -0.07080738 -0.098133005 -0.4088515 0.2580086 0.2686036 -0.30717918 -0.089476764
0.35430726 -0.25680813 -0.22487609 -0.6423522 0.7075855 0.35721302 -0.5006275 -0.529756
-0.05844849 0.14679712 -0.27631468 -0.18464313 0.6227993 0.439223 -0.06454157 -0.10586913
-0.5234121 -0.03852848 -0.66465044 0.24272677 0.7026284 0.2886085 -0.32400966 -0.5603865
0.23740394 0.431303 -0.2982725 -0.71157306 -0.3644889 -0.12113501 -0.75176716 -0.3381346
0.83691204 0.26348868 -0.38295564 -0.39326036 -0.056019936 -0.5107025 -0.6770107 -0.5772249
0.60180503 0.405254 -0.491723 -0.56755435 -0.102768615 -0.08635972 -0.749567 -0.07761899
0.06073536 0.38226044 -0.6225324 -0.38003084 -0.32754672 -0.22377305 -0.72598624 -0.74596924
0.30848327 0.13459778 -0.2707766 -0.80264014 -0.3518504 0.60019743 -0.62446034 0.006712704
-0.59144855 0.31464994 -0.44018176 -0.7027618 -0.46184856 0.6464802 -0.25928918 -0.87958074
0.12751411 -0.072959974 -0.89841515 -0.57253546 0.06708718 0.13459273 -0.37947738 -0.12292507
0.44575194 -0.54802316 -0.47246996 -0.97325563 0.30595547 -0.025542606 -0.16305622 -0.5576885
0.48851016 0.27377862 0.071010835 -0.24080533 -0.4016307 0.05010008 -1.0465139 -0.081978
0.697681 0.4641699 0.47797817 -0.72539574 0.15044117 -0.120087035 -0.6825594 -0.52563757
00000000: f95a 79bb 0c4c 1e3e d8a2 b4be e17c 9fbd
00000010: b161 423f 274f f43e f6c3 bc3e f36e 87be
00000020: 7b2e 8dbd 144c 9abe a093 4ebf 4ce1 b13e
00000030: d321 403f 60a9 b33e c794 bebd b729 efbe
00000040: c38e 7a3d 7603 91bd f5f9 c8bd fc54 d1be
00000050: b419 843e 6986 893e 9746 9dbe 983f b7bd
00000060: c367 b53e 5b7c 83be eb45 66be 3271 24bf
00000070: 5324 353f a0e4 b63e 2029 00bf 179e 07bf
00000080: af67 6fbd fc51 163e 1e79 8dbe 1713 3dbe
00000090: c66f 1f3f d6e1 e03e 5f2e 84bd ead1 d8bd
000000a0: 56fe 05bf 0ad0 1dbd 8826 2abf 5e8d 783e
000000b0: 74df 333f 7ec4 933e 98e4 a5be 7d75 0fbf
000000c0: 051a 733e bfd3 dc3e 2cb7 98be a729 36bf
000000d0: 4a9e babe a215 f8bd d073 40bf fa1f adbe
000000e0: de3f 563f fde7 863e c312 c4be 6c59 c9be
000000f0: 2975 65bd 66bd 02bf 9350 2dbf 03c5 13bf
00000100: e50f 1a3f 747d cf3e 1ec3 fbbe 3e4b 11bf
00000110: 5a78 d2bd 5ddd b0bd 9fe3 3fbf b4f6 9ebd
00000120: a4c5 783d a4b7 c33e 495e 1fbf 6793 c2be
00000130: 34b4 a7be c324 65be 3cda 39bf d7f7 3ebf
00000140: 85f1 9d3e 00d4 093e 3ba3 8abe d379 4dbf
00000150: bc25 b4be 8aa6 193f a2dc 1fbf 3ef6 db3b
00000160: 2c69 17bf cc19 a13e 815f e1be 33e8 33bf
00000170: 6a77 ecbe ba7f 253f 8dc1 84be 342c 61bf
00000180: 0f93 023e 0a6c 95bd 89fe 65bf af91 12bf
00000190: 0165 893d add2 093e dc4a c2be 24c0 fbbd
000001a0: 9939 e43e 3f4b 0cbf 95e7 f1be 4827 79bf
000001b0: 32a6 9c3e ba3e d1bc 36f8 26be acc4 0ebf
000001c0: 011e fa3e b62c 8c3e 216e 913d ac95 76be
000001d0: 8aa2 cdbe be35 4d3d 2bf4 85bf 15e4 a7bd
000001e0: 399b 323f ada7 ed3e 8eb9 f43e 89b3 39bf
000001f0: 400d 1a3e 31f0 f5bd 36bc 2ebf 2f90 06bf

layer_two.W f4 [8, 7]
-1.9126114 -2.6814914 3.1575768 -2.1141517 -1.8147959 0.79264486 2.6263478 3.026395
-3.0361576 3.269936 -1.272488 -2.482602 0.5069849 -1.3452466 2.664089 2.553934
-2.2718508 -2.7132444 -0.96349907 1.4117631 2.9653442 0.8666416 -0.09803959 -1.9170327
3.136589 -2.666061 0.6776982 2.9481347 -1.7011907 1.3813244 1.9350997 2.4521852
-2.9583397 -2.8428547 -2.3175948 -2.3649142 2.5659332 2.776034 -3.3232014 -2.026305
1.2001232 -1.1178169 0.13851678 0.64998305 -2.31563 3.79571 -1.9663239 2.7705016
0.43758067 3.0877047 2.276388 -3.152936 -0.014066327 1.7269797 1.8644607 -0.26630795
00000000: 73d0 f4bf 8e9d 2bc0 bd15 4a40 434e 07c0
00000010: 3b4b e8bf c6ea 4a3f 1516 2840 75b0 4140
00000020: 6850 42c0 a246 5140 e3e0 a2bf f3e2 1ec0
00000030: c3c9 013f 0a31 acbf 6f80 2a40 a873 2340
00000040: 0166 11c0 cca5 2dc0 e0a7 76bf a7b4 b43f
00000050: 33c8 3d40 39dc 5d3f fbc8 c8bd 5461 f5bf
00000060: e0bd 4840 bea0 2ac0 a17d 2d3f 3dae 3c40
00000070: 9ec0 d9bf 3dcf b03f 59b1 f73f 9af0 1c40
00000080: 7055 3dc0 55f1 35c0 7953 14c0 c15a 17c0
00000090: 4038 2440 8baa 3140 55af 54c0 fbae 01c0
000000a0: a39d 993f a014 8fbf 58d7 0d3e 4a65 263f
000000b0: 4833 14c0 eaec 7240 80b0 fbbf e64f 3140
000000c0: 930a e03e f49c 4540 57b0 1140 b4c9 49c0
000000d0: 7476 66bc ac0d dd3f a6a6 ee3f 8459 88be

layer_two.a f4 [1, 14, 1]
0.01026247 -0.002450118 -0.04639405 -0.0062140236 0.18746799 0.0040865145 -0.016416037 0.08668669
0.07920297 0.056187302 0.06315452 0.1156997 0.063939795 0.10121979
00000000: eb23 283c 2992 20bb b007 3ebd 029f cbbb
00000010: 9cf7 3f3e 2be8 853b ed7a 86bc cb88 b13d
00000020: 2b35 a23d a824 663d 2857 813d f7f3 ec3d
00000030: def2 823d 524c cf3d
