models/model_epoch_100.safetensors (safetensors, 367960 bytes, 4 tensors)

layer_one.W f4 [1433, 64]
0	0xbe3df494	-0.1855033
1	0xbd6e917c	-0.058244213
2	0x3e0d3cc2	0.13792709
3	0xbd0bcfc8	-0.034133703
4	0xbd6aa0cd	-0.057282258
5	0xbe1c11f0	-0.15241218
6	0xbe0526cf	-0.13003086
7	0x3dfb3b3b	0.12267157
8	0xbe4dec74	-0.20109731
9	0x3d9fc53d	0.07801292
10	0x3cb3cdf0	0.021948785
11	0x3d0f156c	0.03493254
12	0xbcc066d8	-0.02348654
13	0xbe0bf260	-0.13666677
14	0xbe1dd768	-0.15414202
15	0x3e474589	0.1946012
16	0xbe490f60	-0.19634771
17	0x3d9a7cc2	0.07543327
18	0x3c57c6ba	0.013169939
19	0x3d1b6bf1	0.037944738
20	0x3db2700d	0.08712778
21	0xbde1bfef	-0.110229366
22	0xbdf134c8	-0.11777645
23	0xbcc271c0	-0.02373588
24	0xbe6bdb3c	-0.2303285
25	0x3ddbdcc0	0.10735464
26	0x3d0898e4	0.033348933
27	0xbd99c5f5	-0.075084604
28	0xbd8c288e	-0.06843673
29	0xbe5346c1	-0.20632459
30	0xbe3b7062	-0.1830459
31	0x3e5ad7f3	0.2137144
32	0xbe766d74	-0.2406519
33	0xbd19c2da	-0.03753934
34	0xbb45216b	-0.0030079733
35	0x3df42ac3	0.11922219
36	0xbc0c75a4	-0.00857297
37	0xbdcd4079	-0.10022063
38	0x3bb207f1	0.0054330756
39	0x3e274bb2	0.16337469
40	0xbe8bcffb	-0.27307114
41	0x3d032888	0.032021075
42	0xbe033dda	-0.12816563
43	0xbd18f596	-0.037343584
44	0x3b265676	0.0025381125
45	0xbe248a2e	-0.16068336
46	0xbe04f48e	-0.12983915
47	0x3e142e2a	0.14470735
48	0xbe92d14c	-0.28675306
49	0xbc75bcd9	-0.014998638
50	0xbd26d17f	-0.040727135
51	0xbd1f8021	-0.038940553
52	0xbd4ec147	-0.050477292
53	0xbe23a8c4	-0.15982348
54	0xbde710ac	-0.11282477
55	0xbc333fd0	-0.010940507
56	0xbe02e352	-0.12782028
57	0x3db6b31c	0.08920881
58	0x3e10a5ab	0.14125697
59	0xbe1b8229	-0.15186371
60	0xbcc14142	-0.023590688
61	0xbcaddf00	-0.021224499
62	0xbd90c3c7	-0.070685916
63	0x3da769fa	0.0817451
64	0xbcccdd3e	-0.02500784
65	0x3cfe9876	0.031078558
66	0xbe06b4a4	-0.13154846
67	0xbe26f77a	-0.16305342
68	0x3cb424f7	0.021990282
69	0x3a90620c	0.0011015548
70	0xbe13b1a6	-0.14423236
71	0xbd8caf1d	-0.06869338
72	0xbd26bd3c	-0.04070781
73	0xbdb28100	-0.08716011
74	0xbe009402	-0.1255646
75	0xbe980b5b	-0.29696164
76	0xbd30907d	-0.043106545
77	0x3d221067	0.039566424
78	0xbe212b2b	-0.15739124
79	0xbde34be3	-0.110984586
80	0x3cb64cc0	0.022253394
81	0xbbb8d22e	-0.0056402897
82	0xba6e0e85	-0.0009081143
83	0xbe5953a8	-0.21223319
84	0x3d02c14c	0.031922624
85	0xbddef580	-0.10886669
86	0xbdff8eb0	-0.12478387
87	0xbd01d154	-0.03169377
88	0x3ceb5100	0.028725147
89	0xbdbb2eae	-0.09139763
90	0xbd21e1c2	-0.03952194
91	0xbdf0fc00	-0.11766815
92	0xbd67b684	-0.056570545
93	0x3d44d79c	0.048057184
94	0xbe3a41bf	-0.18189143
95	0xbe21d12e	-0.15802452
96	0x3d8ff048	0.07028252
97	0xbdb36f7e	-0.087615
98	0xbde99251	-0.11404861
99	0xbe422e14	-0.1896289
100	0xbdae42af	-0.08508813
101	0x3c04b2ae	0.008099241
102	0xbe710bee	-0.23539707
103	0xbdd4602a	-0.10369904
104	0xbcff9174	-0.031197287
105	0xbd98d7bc	-0.07463023
106	0xbe5f96da	-0.21834889
107	0xbea1f612	-0.3163305
108	0xbcc8b823	-0.024501866
109	0xbc54dcc7	-0.012992091
110	0xbe294a97	-0.1653236
111	0xbcbaf87d	-0.022823567
112	0xbd3e3dbd	-0.046445597
113	0xbafe1dd0	-0.0019387547
114	0xbde808a9	-0.11329777
115	0xbe879171	-0.2647815
116	0xbd40afd9	-0.0470427
117	0xbd84b09a	-0.064789966
118	0xbe1a3409	-0.15058912
119	0xbd2be891	-0.04196984
120	0xbc98c72d	-0.018649662
121	0xbcc2b13e	-0.023766156
122	0xbd0fc482	-0.035099514
123	0xbe1f567d	-0.15560336
124	0x3d56df2c	0.052458927
125	0xbd879918	-0.06620997
126	0xbe3fba8e	-0.18723509
127	0x3cc08ca3	0.02350456
128	0x3b944f65	0.004526066
129	0x3e320534	0.17384797
130	0xbc7bd7ea	-0.015371302
131	0x3d244c1e	0.040111654
132	0x3ca9bb9e	0.020719346
133	0xbe0c8304	-0.13721853
134	0xbe916e53	-0.28404483
135	0x3c8ee552	0.017443333
136	0x3c193e32	0.009353207
137	0x3e71b2a4	0.23603302
138	0xbd9a46c0	-0.07533026
139	0xbda62194	-0.08111873
140	0xbdf10a8f	-0.11769592
141	0xbdd7eefb	-0.10543629
142	0xbdb59b65	-0.0886753
143	0x3b889715	0.004168401
144	0x3dd4e9ac	0.10396132
145	0x3d134de2	0.035962947
146	0x3d3b0cb8	0.045666426
147	0xbcf0c038	-0.029388532
148	0xbd719e19	-0.058988664
149	0xbd08416e	-0.033265524
150	0xbe66cc25	-0.22538812
151	0xbdb77ea6	-0.08959703
152	0xbdef5b07	-0.11687284
153	0x3e1acad2	0.15116432
154	0xbdafad37	-0.0857796
155	0xbd8c6ce5	-0.068567075
156	0xbd2ccbf1	-0.04218668
157	0xbdfeca2a	-0.124409035
158	0xbe3bfd9d	-0.18358465
159	0xbdc84f1a	-0.097807124
160	0xbd86b324	-0.06577137
161	0x3e198bc3	0.14994721
162	0x3be3a917	0.0069476473
163	0xbd8e94c2	-0.06961967
164	0xbd27004c	-0.040771767
165	0xbe78765e	-0.24263903
166	0xbe6bc8d9	-0.23025836
167	0xbdd2bf5a	-0.10290404
168	0x3cd5a481	0.026079418
169	0x3ded1daa	0.115779236
170	0xbd3f5c66	-0.046718977
171	0xbe0d45ab	-0.13796107
172	0xbd58091d	-0.052743066
173	0xbc95a6fd	-0.018268103
174	0xbd84c838	-0.06483501
175	0xbd02f12e	-0.031968288
176	0x3a1ad7c6	0.00059067865
177	0x3d5f9c35	0.05459233
178	0x3d7c5106	0.061600707
179	0xbcf4e2e0	-0.029893339
180	0xbdbaa499	-0.09113426
181	0xbdf62fcf	-0.120208375
182	0xbdc7fdb3	-0.09765186
183	0x3d08d1bb	0.03340314
184	0x3d4a35db	0.049367767
185	0x3e0edaf0	0.13950706
186	0xbc08cb9d	-0.008349326
187	0xbe054e3a	-0.13018122
188	0xbd3cf95a	-0.046136238
189	0xbdf93c91	-0.12169755
190	0xbe186469	-0.14882053
191	0xbd589d37	-0.052884307
192	0x3d9767bc	0.07392833
193	0xbd33dccb	-0.043911736
194	0xbbddf33b	-0.00677338
195	0x3d47f3cc	0.048816487
196	0x3d74734a	0.05968026
197	0xbd7d2fff	-0.06181335
198	0xbda6d0fd	-0.0814533
199	0xbd91f607	-0.07127004
200	0x3cfcf577	0.030878766
201	0xbca9125d	-0.02063864
202	0xbbe85429	-0.007090111
203	0xbd4774e9	-0.04869548
204	0x3cee553c	0.029093377
205	0x3d58a12a	0.052888073
206	0xbddd9e65	-0.10821227
207	0xbd657602	-0.056020744
208	0x3b056222	0.0020352681
209	0xbc3d5e84	-0.011558179
210	0x3d8d2ac0	0.068929195
211	0x3d902fbf	0.07040357
212	0xbdde812d	-0.10864482
213	0x3d9833be	0.07431744
214	0xbe531920	-0.20615053
215	0x3db68e1b	0.08913823
216	0xbde94956	-0.11390941
217	0xbd7ea5e9	-0.062169943
218	0xbc01f0d8	-0.007930957
219	0xbdef90ab	-0.11697515
220	0xbd72cbdf	-0.059276458
221	0x3d6a0669	0.05713502
222	0xbdaf71c7	-0.08566623
223	0xbe044b0f	-0.12919258
224	0xbca35984	-0.019940145
225	0xbc8faa1c	-0.01753717
226	0xbd1cc4d9	-0.038273666
227	0xbde8f72a	-0.11375268
228	0xbdf8031d	-0.12109969
229	0xbda7d4bb	-0.08194872
230	0xbdbbb000	-0.09164429
231	0xbd8d16df	-0.06889128
232	0x3dfd47f6	0.12367241
233	0xbdbac210	-0.09119046
234	0x3cbc73bd	0.023004407
235	0xbdec26ec	-0.11530861
236	0xbdb2d4cd	-0.08731995
237	0x3d87e914	0.06636253
238	0xbe2182ba	-0.15772524
239	0xbe4706d0	-0.19436193
240	0x3da338bd	0.07969806
241	0xbd8095a1	-0.062785394
242	0xbd92532b	-0.07144769
243	0xbdf2d1fd	-0.11856458
244	0x3a8c66e2	0.0010711814
245	0xbdca57f9	-0.09880061
246	0xbdf9aa84	-0.121907264
247	0xbe113b86	-0.14182863
248	0xbd5cec91	-0.053936545
249	0xbe0a47bc	-0.13503927
250	0x3d97a052	0.074036255
251	0xbd33b95a	-0.043877937
252	0x3dd012ed	0.1015986
253	0xbc154f04	-0.009113077
254	0xbde689cb	-0.11256751
255	0x3b1c9a6e	0.0023895758

layer_one.a f4 [8, 16, 1]
0	0x3e1f6cef	0.15568899
1	0xbe91ec08	-0.2850039
2	0x3bd43aa7	0.0064767185
3	0xbd34ee4a	-0.044172563
4	0x3ed6177e	0.41814798
5	0x3a7ba974	0.00096001406
6	0x3e5520fc	0.20813364
7	0x3ce77177	0.028252346
8	0xbe962b9a	-0.2933014
9	0xbeccdb2f	-0.40010974
10	0xbf1811e9	-0.5940233
11	0x3e787367	0.24262773
12	0x3f0e9cc3	0.5570795
13	0x3e46bbb2	0.19407538
14	0xbec9d757	-0.39422104
15	0xbe1d88ff	-0.15384291
16	0x3e7e882e	0.24856636
17	0x3ebab570	0.3646655
18	0x3dfb3e6e	0.12267767
19	0x3db1cb6b	0.08681377
20	0x3ead51da	0.3385151
21	0xbcb80db3	-0.02246747
22	0x3d809d03	0.062799476
23	0x3d9adcbf	0.07561635
24	0x3f28cdd8	0.6593909
25	0x3dabdd81	0.08391858
26	0xbde6c5f3	-0.112682246
27	0xbf1ec62f	-0.62021154
28	0x3f27ca9d	0.6554354
29	0x3ddb2c18	0.107017696
30	0xbf1d217a	-0.61379206
31	0xbe94ce11	-0.29063466
32	0xbdf4fec0	-0.11962652
33	0x3e7a7460	0.24458456
34	0x3e7ff1e0	0.24994612
35	0x3eccd120	0.400033
36	0x3e9a0d38	0.3008821
37	0x3e9f3343	0.31093797
38	0x3e1a9ecd	0.1509964
39	0xbd96a418	-0.07355517
40	0xbedb8eca	-0.42882377
41	0xbd66e7fa	-0.056373574
42	0xbf43a965	-0.7643035
43	0x3ce7f6b7	0.028315885
44	0x3f0e1d20	0.5551319
45	0x3eaec166	0.34131926
46	0xbe621108	-0.2207681
47	0xbe7e5073	-0.24835376
48	0xbd15d7d9	-0.0365828
49	0x3f0c5968	0.54823923
50	0xbf050931	-0.5196715
51	0x3d77b22a	0.060472645
52	0xbd72c313	-0.05926807
53	0xbe53ff8e	-0.20702955
54	0xbede30e5	-0.4339668
55	0x3e529f44	0.20568568
56	0x3f4ce0ff	0.80030817
57	0x3ebc8e52	0.36827332
58	0xbf4fd401	-0.8118287
59	0xbe08b919	-0.13351859
60	0x3e0b2bf5	0.13590987
61	0xbe5ddc7e	-0.21666142
62	0xbf0a9ba0	-0.54143715
63	0xbf09e96a	-0.53871787
64	0x3edad1d4	0.4273821
65	0x3f041042	0.5158731
66	0x3debf33a	0.11521001
67	0xbd4c125c	-0.049822196
68	0x3d4be814	0.049781874
69	0xbe09d084	-0.13458449
70	0xbf034e05	-0.51290923
71	0x3bfed2d4	0.0077765975
72	0x3cd87c80	0.026426554
73	0x3ea21779	0.31658533
74	0xbf390425	-0.7227195
75	0x3cb72189	0.022354858
76	0xbe1cf9ca	-0.15329662
77	0xbec44ec9	-0.38341358
78	0xbf6ac1de	-0.9170207
79	0xbf5a7724	-0.85338044
80	0xbdc1f363	-0.094702505
81	0x3d4fd9a0	0.050744653
82	0xbdfa6999	-0.122271724
83	0xbdeed821	-0.11662317
84	0xbcf02516	-0.029314559
85	0x3e22fb6f	0.15916227
86	0xbe8f3c42	-0.2797566
87	0xbe82bb3b	-0.2553347
88	0xbecfdfa7	-0.4060032
89	0x3eeef8ab	0.46674094
90	0xbf1bf841	-0.6092568
91	0xbf09585d	-0.53650457
92	0xbeb9303b	-0.3616961
93	0x3f18770c	0.5955665
94	0xbd0ed4ac	-0.03487079
95	0xbf7c64df	-0.9859142
96	0x3d2e1a6d	0.04250567
97	0x3ee5d367	0.4488785
98	0xbec860ff	-0.39136502
99	0x3bb038ea	0.0053778784
100	0x3e0e4921	0.13895084
101	0xbe679328	-0.2261473
102	0x3ddfc790	0.109267354
103	0x3e3b2031	0.18273999
104	0x3e743138	0.238469
105	0xbeebb76e	-0.46038383
106	0xbef480f3	-0.4775463
107	0xbf4f1f01	-0.80906683
108	0x3ec158a9	0.37762955
109	0xbdab5a47	-0.083668284
110	0xbef5644c	-0.47928083
111	0xbebeddf3	-0.3727871
112	0x3ef8d2aa	0.48598224
113	0x3e003b86	0.12522706
114	0x3e8ac42c	0.27102792
115	0x3e270930	0.16312099
116	0x3e53c4f1	0.20680596
117	0xbe7c544f	-0.24641536
118	0xbeee7de8	-0.46580434
119	0xbd076e05	-0.033063907
120	0x3f02d1f8	0.51101637
121	0x3f3b0299	0.7305084
122	0x3d78cc7c	0.060741886
123	0xbf0fd8e4	-0.56190324
124	0x3ea1824c	0.3154472
125	0xbd744ac2	-0.059641607
126	0xbf53a949	-0.82680184
127	0xbeb6bc66	-0.35690612

layer_two.W f4 [8, 7]
0	0xbf4650d1	-0.77467066
1	0xbf20d245	-0.62820846
2	0x3f99d316	1.2017543
3	0xbf338d32	-0.7013732
4	0xbee7a7b9	-0.4524515
5	0x3f147857	0.57996124
6	0x3f5f79fe	0.8729552
7	0x3f6e9e67	0.9321045
8	0xbf7aa919	-0.9791427
9	0x3f85f357	1.0464886
10	0xbf07c1e8	-0.5303025
11	0xbedc554b	-0.43033823
12	0x3eb3f2cd	0.3514618
13	0xbe8933aa	-0.2679723
14	0x3eb0c46c	0.34524858
15	0x3e01c266	0.12671813
16	0xbf467ab6	-0.7753099
17	0xbf3ee008	-0.74560595
18	0xbecca62e	-0.39970535
19	0x3ec8a0ff	0.3918533
20	0x3f34f14a	0.7068068
21	0x3da2955b	0.079386435
22	0x3f3a4449	0.72760445
23	0xbf0a2e0c	-0.5397651
24	0x3f347ec3	0.70505923
25	0xbf628007	-0.88476604
26	0x3ea16be3	0.31527624
27	0x3f3f955d	0.74837285
28	0xbf8648ff	-1.0491027
29	0x3f65fa96	0.8983549
30	0x3e6e4519	0.23268546
31	0x3f3625e0	0.7115154
32	0xbf9a98ea	-1.2077916
33	0xbf7ca169	-0.9868379
34	0xbf3d5255	-0.73953754
35	0xbf88d198	-1.0688963
36	0x3e4cde6e	0.20006725
37	0x3f433a78	0.7626109
38	0xbf3c5173	-0.7356178
39	0xbf443460	-0.7664242
40	0x3f3de333	0.74174803
41	0x3d007add	0.03136717
42	0x3cd6ee90	0.026236802
43	0x3f6f5678	0.93491316
44	0xbf1f2215	-0.6216138
45	0x3f7a6efb	0.9782559
46	0xbee860eb	-0.45386443
47	0x3f2e2bdf	0.6803569
48	0x3edc45c9	0.43021992
49	0x3f88f8bf	1.0700911
50	0x3f397538	0.72444487
51	0xbf9b26d6	-1.2121227
52	0x3f2979bc	0.66201377
53	0x3f2201fa	0.63284266
54	0x3ef40bac	0.47665155
55	0x3e2a70b3	0.16644554

layer_two.a f4 [1, 14, 1]
0	0x3e080924	0.13284737
1	0xbac6fa90	-0.0015180875
2	0x3e1f1038	0.1553353
3	0xbe5ded1c	-0.21672481
4	0x3f0c2511	0.5474406
5	0x3d34fa53	0.04418404
6	0x3e5df156	0.21674094
7	0x3ea6a378	0.32546592
8	0xbf2d073d	-0.6758917
9	0x3e8e922c	0.27845895
10	0xbef56b28	-0.47933316
11	0x3f27538f	0.65361875
12	0xbf6de1c2	-0.92922604
13	0xbf51bb4e	-0.8192643
