models/model_epoch_600.safetensors (safetensors, 367960 bytes, 4 tensors)

layer_one.W f4 [1433, 64]
0	0xbeb2b898	-0.3490646
1	0x3e00f2df	0.12592648
2	0x3e84cfd8	0.25939822
3	0x3e53c863	0.2068191
4	0x3e1d324d	0.1535122
5	0xbece1e3e	-0.40257448
6	0x3e134ee2	0.1438556
7	0x3ebaea0d	0.36506692
8	0xbf49d044	-0.78833413
9	0x3e25ea2c	0.1620261
10	0x3e0a8fe4	0.13531452
11	0x3e79f928	0.24411452
12	0xbdfa6341	-0.122259624
13	0xbe25bf5e	-0.16186282
14	0x3e1db91c	0.15402645
15	0x3eb49fa7	0.35278055
16	0xbed3967a	-0.41325742
17	0x3e901b41	0.28145793
18	0x3ea7be18	0.32762218
19	0x3df0c218	0.117557704
20	0x3e472aef	0.19449972
21	0xbede7810	-0.43450975
22	0x3ade07b0	0.0016939547
23	0x3ea2703d	0.31726256
24	0xbf33021b	-0.6992509
25	0x3eee66b5	0.46562734
26	0x3e7a48f7	0.24441896
27	0xbe2cb49e	-0.16865775
28	0xbe213248	-0.15741837
29	0xbee6b8af	-0.45062777
30	0xbd60f0a4	-0.054916993
31	0x3f0b8920	0.5450611
32	0xbf1485f0	-0.5801687
33	0x3e32154d	0.17390938
34	0x3e22fb47	0.15916167
35	0x3ebbe1c9	0.36695698
36	0x3af2ed88	0.0018533925
37	0xbe0d9870	-0.13827682
38	0x3e4143eb	0.18873565
39	0x3eb9b643	0.36271867
40	0xbf10eb57	-0.566091
41	0x3defc3ae	0.11707245
42	0xbe83a0c2	-0.25708586
43	0x3e27d3c3	0.16389374
44	0x3d01d790	0.031699717
45	0xbeb9ad95	-0.36265245
46	0x3c865efb	0.016402712
47	0x3e66f2ba	0.2255353
48	0xbf0f41b8	-0.55959654
49	0x3e4d6343	0.20057397
50	0x3d83f06c	0.06442341
51	0x3e538aac	0.20658368
52	0x3dbcfe5c	0.09228203
53	0xbe897237	-0.26844952
54	0x3df5bbf2	0.11998738
55	0x3ea7a9fe	0.3274688
56	0xbecd9afd	-0.4015731
57	0x3e8099d6	0.25117368
58	0x3ea1810f	0.31543776
59	0x3e54388f	0.207247
60	0x3e5d7175	0.21625312
61	0xbe7da432	-0.24769667
62	0x3e146e1d	0.1449513
63	0x3ed9a56f	0.42509028
64	0xbe795642	-0.24349311
65	0xbe90d909	-0.28290585
66	0xbdb03194	-0.08603206
67	0xbe862d8f	-0.26206633
68	0xbe08e5db	-0.13368933
69	0xbd07e617	-0.033178415
70	0xbe929127	-0.28626367
71	0x3e05feec	0.13085526
72	0xbdefabd6	-0.11702697
73	0xbedc26b7	-0.42998287
74	0xbe4a9427	-0.19783078
75	0xbf0a19fb	-0.53945893
76	0xbe7320e3	-0.23743014
77	0xbde5442a	-0.11194642
78	0xbe3fb3ef	-0.18720983
79	0x3d8219dd	0.06352589
80	0xbdba47d9	-0.09095735
81	0xbe9a111e	-0.30091184
82	0x3b7a1a43	0.0038162626
83	0xbf31dc61	-0.69476897
84	0xbe83110c	-0.25598943
85	0x3d7796cc	0.060446545
86	0xbedf440f	-0.43606612
87	0x3ea8b7f3	0.32952842
88	0xbe1aa969	-0.15103687
89	0xbeacf8a1	-0.3378344
90	0xbe9097a8	-0.28240705
91	0xbeee6574	-0.46561778
92	0xbf03266d	-0.5123051
93	0x3c0c0fb6	0.008548668
94	0xbeb913c4	-0.36147892
95	0x3da3bfa0	0.07995534
96	0xbda54f86	-0.080718085
97	0xbe0e904b	-0.13922231
98	0xbd093ed2	-0.033507176
99	0xbee8edfd	-0.4549407
100	0xbea7c3cb	-0.32766566
101	0x3dbd6871	0.09248436
102	0xbeb78182	-0.35840994
103	0x3d34be0b	0.04412655
104	0xbe81c49d	-0.25345317
105	0xbef8b741	-0.48577312
106	0xbe0d6d07	-0.13811122
107	0xbf0b9f60	-0.5454006
108	0xbe932792	-0.28741127
109	0x3ba9f08a	0.005186145
110	0xbe913962	-0.28364092
111	0x3e4ed132	0.20196989
112	0xbe8f78da	-0.2802189
113	0xbeae1830	-0.3400283
114	0xbe26b7dc	-0.16281074
115	0xbf0beb86	-0.54656255
116	0xbe51045f	-0.20411824
117	0xbe0a6ca5	-0.13518007
118	0xbed7798f	-0.4208493
119	0x3e6ff477	0.234331
120	0x3ce1ec1d	0.027578408
121	0xbd856356	-0.065130875
122	0x3d41cdaa	0.047315277
123	0xbef506fe	-0.47856897
124	0xbe555757	-0.20834099
125	0xbd0b4ae3	-0.034006964
126	0xbece4fb3	-0.4029518
127	0x3e55508d	0.20831509
128	0xbc8e5757	-0.017375631
129	0x3e88535d	0.266261
130	0x3e46836d	0.19386072
131	0x3e395081	0.18097116
132	0x3d731a38	0.059351176
133	0xbe4addda	-0.19811192
134	0xbdff6b78	-0.1247167
135	0x3dbfd423	0.09366634
136	0x3dc477b6	0.095931455
137	0x3ed95ffe	0.4245605
138	0x3e0f0928	0.13968337
139	0xbe5fb501	-0.21846391
140	0xbedf7075	-0.43640485
141	0xbd4e85e8	-0.05042067
142	0xbdb0ae26	-0.08626966
143	0x3e661a58	0.22470987
144	0x3e515431	0.20442273
145	0x3e76a6f5	0.24087127
146	0x3ebb083d	0.36529723
147	0x3e737c71	0.2377794
148	0xbe5271a8	-0.20551169
149	0xbea5b591	-0.32365087
150	0xbe2c42df	-0.16822384
151	0x3d222ddb	0.039594512
152	0xbe84e49d	-0.25955668
153	0x3de1036c	0.10986981
154	0x3e59de2c	0.21276158
155	0x3dd2fdde	0.103023276
156	0xbe8c3f90	-0.27392244
157	0xbdd1f773	-0.10252275
158	0x3c787818	0.015165351
159	0x3e4fbf6d	0.20287867
160	0xbe474c0c	-0.19462603
161	0x3eb84e92	0.35997444
162	0x3e636d50	0.22209668
163	0x3e3a80ff	0.1821327
164	0x3d03dc61	0.03219259
165	0xbea80bba	-0.32821447
166	0xbe49f979	-0.19724073
167	0x3da1b734	0.07896271
168	0x3e16b89d	0.14718862
169	0x3e20375c	0.15646118
170	0x3ecc791a	0.39936143
171	0xbac24b15	-0.0014823402
172	0xbe34887b	-0.17630188
173	0xbdcba077	-0.099427156
174	0x3e576188	0.21033299
175	0x3d815845	0.06315664
176	0x3dd3ead7	0.103475265
177	0x3e209f4c	0.15685767
178	0x3ea2d8ed	0.31806126
179	0x3d5ad0fe	0.053421967
180	0xbe08f52a	-0.13374773
181	0x3e235ead	0.15954085
182	0x3e810089	0.2519572
183	0x3e35e8dd	0.17764612
184	0xb985b58c	-0.00025503
185	0x3eb05e22	0.34446818
186	0x3e91e2c6	0.28493327
187	0x3e82f4f3	0.25577506
188	0xbcbe1ce2	-0.023207132
189	0xbe4e84ea	-0.2016789
190	0xbd81fdd5	-0.06347243
191	0x3e10bdd8	0.1413492
192	0xbe1c3e57	-0.15258156
193	0xbd1e3a20	-0.03862965
194	0xbdd60e77	-0.10451978
195	0xbe614b27	-0.22001325
196	0xbe84b6ed	-0.2592081
197	0xbe91c998	-0.28474116
198	0xbe27a5dd	-0.16371866
199	0xbe5b70f4	-0.21429807
200	0xbd9de20a	-0.07709129
201	0xbeb38337	-0.35061046
202	0xbd7adf58	-0.061248153
203	0xbdb9a469	-0.09064562
204	0xbe7b6957	-0.24551903
205	0xbdcfc63a	-0.101452306
206	0xbdae8ea2	-0.08523299
207	0x3dbf46d0	0.09339678
208	0x3d88caf8	0.06679338
209	0xbe9add9f	-0.30247208
210	0xbdcbdfdf	-0.099548094
211	0x3c0b715d	0.008510915
212	0xbe521f77	-0.20519815
213	0xbe69792f	-0.22800134
214	0xbebda416	-0.3703925
215	0xbdd85356	-0.1056277
216	0xbd4cc0c3	-0.04998852
217	0xbea08f6a	-0.31359416
218	0x3db0e2c2	0.086370006
219	0xbe1b6507	-0.15175258
220	0xbd5226dc	-0.05130659
221	0x3dc05bc0	0.093925
222	0xbe3a9cc0	-0.18223858
223	0xbe0b170c	-0.1358301
224	0xbdb72f06	-0.08944516
225	0xbde8b802	-0.11363222
226	0x3c797621	0.015225918
227	0xbe8c0233	-0.27345428
228	0xbe4390c3	-0.19098191
229	0x3cc3f9e4	0.023922868
230	0x3d871e78	0.06597608
231	0xbccf4ffa	-0.02530669
232	0xbd284c0d	-0.041088153
233	0xbe4458c0	-0.1917448
234	0x3d1a5efe	0.037688248
235	0xbe2b694c	-0.16739386
236	0xbeb8a228	-0.36061215
237	0xbd6a324f	-0.057176884
238	0xbe7aab09	-0.24479307
239	0xbe58e559	-0.21181239
240	0x3e840fb6	0.25793236
241	0xbe629884	-0.22128493
242	0xbc25f698	-0.010129593
243	0xbeabc5da	-0.33549386
244	0xbe31b1b6	-0.17352948
245	0xbeac84d2	-0.33695084
246	0xbea031ab	-0.31287894
247	0xbe0309b2	-0.12796667
248	0x3dd22b12	0.10262121
249	0xbeaaebdd	-0.33383074
250	0x3e08643f	0.13319491
251	0xbea67da7	-0.3251774
252	0x3e066c74	0.13127309
253	0x3bc3926e	0.0059683835
254	0xbeb1978d	-0.34685937
255	0x3dbdb340	0.09262705

layer_one.a f4 [8, 16, 1]
0	0xbb02d975	-0.001996604
1	0xbd02f264	-0.031969443
2	0xbe9584ab	-0.2920278
3	0xbd9f1404	-0.077674896
4	0x3f187b22	0.59562886
5	0x3eb087f2	0.34478718
6	0x3ea1463c	0.31498897
7	0xbe238135	-0.15967257
8	0xbde9865e	-0.11402582
9	0xbeedde6c	-0.46458757
10	0xbf84424d	-1.0332733
11	0x3ec92aed	0.39290562
12	0x3f73f902	0.9530183
13	0x3f130892	0.5743495
14	0xbebd5c6f	-0.36984584
15	0xbf06421b	-0.5244462
16	0x3e644951	0.22293593
17	0x3d4bcb43	0.049754392
18	0x3d18fc6c	0.037350103
19	0xbed62d07	-0.41831228
20	0x3dada32b	0.084783874
21	0x3e5142f0	0.20435691
22	0xbecd8b22	-0.40145212
23	0xbe014dfd	-0.12627406
24	0x3f07ac29	0.5299707
25	0xbebdab3e	-0.3704471
26	0xbb20d60f	-0.0024541651
27	0xbf31e602	-0.6949159
28	0x3f5c862b	0.86142224
29	0x3eaeda3a	0.3415087
30	0xbf131b81	-0.5746384
31	0xbf1646e3	-0.58701915
32	0x3bb856dd	0.0056255893
33	0x3e251ba3	0.16123824
34	0xbe61ad0d	-0.2203867
35	0xbdc7c384	-0.097540885
36	0x3f325591	0.69661814
37	0x3eb12b0e	0.3460316
38	0x3d221e7e	0.03957986
39	0xbe2acb5c	-0.16679138
40	0xbf43322b	-0.76248425
41	0xbd608683	-0.05481578
42	0xbf28b8ab	-0.6590678
43	0x3e215c4d	0.15757866
44	0x3f71fac3	0.94523257
45	0x3ee7b323	0.45253858
46	0xbed3ff9e	-0.41405958
47	0xbf12d8c4	-0.5736201
48	0x3ea3066b	0.31840834
49	0x3ef16b96	0.47152394
50	0xbeade75f	-0.33965585
51	0xbee584e5	-0.44827953
52	0xbe289618	-0.16463506
53	0x3dc17f1a	0.09448071
54	0xbf159c99	-0.58442074
55	0xbebcb8b3	-0.36859664
56	0x3f5f38f2	0.87196267
57	0x3ed18826	0.40924186
58	0xbf2f569c	-0.6849153
59	0xbef9492e	-0.48688644
60	0xbc80adc6	-0.015707862
61	0xbecbce41	-0.39805797
62	0xbf4c56ca	-0.7981993
63	0xbf2102fe	-0.6289519
64	0x3f2871ab	0.65798444
65	0x3ebff649	0.37492588
66	0xbe8ab7af	-0.27093264
67	0xbed9db7f	-0.42550275
68	0xbcd9adff	-0.026572226
69	0xbda8cfac	-0.08242735
70	0xbf34b816	-0.7059339
71	0xbe0c333b	-0.13691418
72	0x3d84aaad	0.06477866
73	0x3eb840b9	0.3598688
74	0xbf339304	-0.70146203
75	0xbea8b6cb	-0.3295196
76	0xbe9a80b7	-0.30176327
77	0xbeadab65	-0.33919826
78	0xbf828f8f	-1.0200061
79	0xbf565fb6	-0.83739793
80	0x3e3c4e54	0.18389255
81	0x3e026053	0.12732057
82	0xbe8c11de	-0.27357382
83	0xbf38e805	-0.72229034
84	0xbe73a23f	-0.2379236
85	0x3e95b0c8	0.29236436
86	0xbf0f11f7	-0.5588679
87	0x39112518	0.00013842096
88	0xbf14f9cc	-0.5819366
89	0x3ecc7947	0.39936277
90	0xbf1ced0d	-0.6129921
91	0xbf6004d7	-0.87507385
92	0xbedf3230	-0.43592978
93	0x3f231c19	0.6371475
94	0xbecfb82b	-0.40570197
95	0xbf733660	-0.95004845
96	0x3e8a9c1b	0.27072224
97	0xbdfdaee4	-0.12386873
98	0xbf44dcb7	-0.76899284
99	0xbec47346	-0.38369197
100	0x3dd6deab	0.10491689
101	0x3e51a0fd	0.20471568
102	0xbe511381	-0.20417596
103	0xbdae30a0	-0.08505368
104	0x3f02d27e	0.51102436
105	0xbf37c584	-0.7178576
106	0xbf2e2cde	-0.6803721
107	0xbf957d4c	-1.1678863
108	0x3ee5496c	0.4478258
109	0x3da69bbc	0.08135173
110	0xbe80ffd3	-0.25195178
111	0xbf29cdfc	-0.6632993
112	0x3ed4e3ec	0.4158014
113	0x3e8c8823	0.27447614
114	0x3c446fa9	0.0119895125
115	0xbe8c0887	-0.27350256
116	0xbeb7fe34	-0.3593613
117	0x3d3abc58	0.045589775
118	0xbf4a3430	-0.7898588
119	0xbea76760	-0.32696056
120	0x3ef5c5ad	0.48002377
121	0x3f274ba6	0.65349805
122	0x3ec8fc7d	0.39255133
123	0xbf582768	-0.8443513
124	0x3ebd6ff7	0.36999485
125	0xbd836c3d	-0.06417129
126	0xbf6cd6b1	-0.92515093
127	0xbf04f741	-0.5193978

layer_two.W f4 [8, 7]
0	0xbfcb24ed	-1.5870644
1	0xc004186c	-2.0639906
2	0x402530a3	2.5810935
3	0xbfcea4d2	-1.6144049
4	0xbfa04427	-1.2520798
5	0x3f28dea4	0.6596472
6	0x4002f467	2.0461671
7	0x40238329	2.5548804
8	0xc0229bbd	-2.5407555
9	0x401cf5d3	2.452504
10	0xbf923623	-1.1422771
11	0xbfe6fdc5	-1.8046194
12	0x3e9b6fbe	0.3035869
13	0xbf421f1e	-0.7582873
14	0x40083b36	2.128614
15	0x3ff4e1e8	1.9131441
16	0xbfea30b3	-1.8296112
17	0xc014603d	-2.318374
18	0xbf438bb7	-0.7638506
19	0x3f96be00	1.1776733
20	0x40102736	2.2523932
21	0x3f2a27ba	0.6646687
22	0x3e0bb562	0.13643411
23	0xbfb69211	-1.4263326
24	0x40233e9f	2.550697
25	0xc00c46c5	-2.1918194
26	0x3f1f97e5	0.6234115
27	0x40069cc9	2.1033194
28	0xbfd67b29	-1.6756335
29	0x3fa1f5ad	1.2653099
30	0x3fbbfd2c	1.4686637
31	0x400c6b9c	2.194068
32	0xc017db13	-2.3727462
33	0xc0084640	-2.1292877
34	0xbfe3d5c1	-1.7799608
35	0xbff9d72a	-1.9518788
36	0x40094197	2.1446283
37	0x4010dfc3	2.2636573
38	0xc023e729	-2.560984
39	0xbfc1dfc6	-1.5146415
40	0x3f61ee6a	0.88254416
41	0xbf2d40c1	-0.6767693
42	0x3d84648a	0.06464489
43	0x3f3dd0f3	0.74146956
44	0xbfe0c5f2	-1.7560408
45	0x403907c9	2.8911002
46	0xbfc21633	-1.5163025
47	0x3fc08d9e	1.5043218
48	0x3ece879a	0.4033783
49	0x40170d60	2.3601913
50	0x3fc88219	1.5664703
51	0xc0226701	-2.5375369
52	0x3e814e2d	0.25254956
53	0x3f92cb6f	1.1468333
54	0x3f87d63e	1.0612257
55	0xbc268710	-0.010164037

layer_two.a f4 [1, 14, 1]
0	0x3cc21435	0.023691276
1	0xbc00db0d	-0.007864726
2	0xbda74d96	-0.08169095
3	0xbc5407fc	-0.012941357
4	0x3dd7e728	0.105421364
5	0xbd972cbc	-0.07381579
6	0x3cd42c6f	0.025900094
7	0x3dfb7c29	0.12279541
8	0x3e129988	0.1431638
9	0x3dd17ac4	0.10228494
10	0x3dd47e38	0.10375637
11	0x3e41ef65	0.18938978
12	0x3dced13a	0.100985005
13	0x3e0844a5	0.13307436
