models/model_epoch_900.safetensors (safetensors, 367960 bytes, 4 tensors)

layer_one.W f4 [1433, 64]
0	0xbe9da3e0	-0.3078909
1	0x3e3fdd4a	0.18736759
2	0x3ec66e7d	0.3875617
3	0x3e369eee	0.17834064
4	0x3d570580	0.05249548
5	0xbeaf6825	-0.34259143
6	0x3e1ca81d	0.15298505
7	0x3ef3b83c	0.47601497
8	0xbf2f3102	-0.68434155
9	0x3e808aa4	0.25105774
10	0x3d1ce4c6	0.038304113
11	0x3ea0a3c9	0.31374958
12	0xbe79ca03	-0.24393468
13	0xbe50cd2c	-0.20390767
14	0x3e7b1423	0.245194
15	0x3eb9cdfe	0.36289972
16	0xbecb4b88	-0.39706063
17	0x3e653e13	0.2238696
18	0x3ee752ac	0.4518026
19	0x3e0af1c4	0.13568789
20	0x3dbf647b	0.09345337
21	0xbefb609d	-0.49097148
22	0x3c2bb598	0.010480307
23	0x3edaa23b	0.42701897
24	0xbf42cfe2	-0.76098454
25	0x3ee99e67	0.45628664
26	0x3ebc0f70	0.36730528
27	0xbd545722	-0.05184091
28	0xbe292110	-0.16516519
29	0xbf1e18ad	-0.617564
30	0xbd198ef6	-0.037489854
31	0x3f176e82	0.59152997
32	0xbf1acb55	-0.6046651
33	0x3e46c7e4	0.1941219
34	0x3e4797f1	0.19491555
35	0x3efee82d	0.4978651
36	0xbe38821a	-0.1801838
37	0xbdff9102	-0.1247883
38	0x3e5a2882	0.21304515
39	0x3ec04bba	0.37557775
40	0xbf0bb39b	-0.5457093
41	0x3e40fa3a	0.18845454
42	0xbe6f776d	-0.23385401
43	0x3e0f284a	0.13980213
44	0xbe89dad6	-0.2692477
45	0xbece62e7	-0.40309832
46	0x3d80ff09	0.06298644
47	0x3ecf50c7	0.40491316
48	0xbf145a2c	-0.5795009
49	0x3e8e8f64	0.27843773
50	0x3dec2577	0.11530583
51	0x3e46c583	0.19411282
52	0xbcbee9d3	-0.023304855
53	0xbea625bc	-0.32450664
54	0x3e9f336a	0.31093913
55	0x3ee55e19	0.44798353
56	0xbeaaefa5	-0.3338596
57	0x3e6c5250	0.23078275
58	0x3ebef586	0.37296695
59	0x3e988b00	0.2979355
60	0x3da8583b	0.082199536
61	0xbe2ef84b	-0.17086904
62	0x3e648fdc	0.22320503
63	0x3f118424	0.56842256
64	0xbf070a7f	-0.5275039
65	0xbee3aae2	-0.4446631
66	0xbdec65d5	-0.115428604
67	0xbed4e28d	-0.41579095
68	0xbe6da48b	-0.232073
69	0x3d1d4cfd	0.0384035
70	0xbd8081ac	-0.06274733
71	0x3ecd1acf	0.40059516
72	0xbe83be31	-0.25731042
73	0xbefa73b3	-0.48916396
74	0xbe72a18c	-0.23694438
75	0xbf111221	-0.5666829
76	0xbebca339	-0.3684328
77	0xbd8a71cd	-0.06759987
78	0xbddc67ad	-0.10761962
79	0x3e5b7467	0.21431123
80	0xbe590108	-0.211918
81	0xbeda0316	-0.4258048
82	0x3d7e9b73	0.062159967
83	0xbf476b12	-0.7789775
84	0xbe9e4611	-0.3091283
85	0x3cf030f2	0.029320214
86	0xbeef5e26	-0.46751517
87	0x3ecd8ccd	0.40146485
88	0xbe8fc30d	-0.280785
89	0xbef32acb	-0.47493586
90	0xbeb35bec	-0.35031068
91	0xbf202a69	-0.6256471
92	0xbf05b37a	-0.52226985
93	0x3c87279d	0.016498381
94	0xbf1bfee4	-0.6093581
95	0x3e0dfc7d	0.13865848
96	0xbde58722	-0.11207415
97	0xbea348ee	-0.31891578
98	0xbb171509	-0.002305331
99	0xbf2899a7	-0.65859455
100	0xbeeeed0a	-0.4666522
101	0xbdc3324e	-0.09531079
102	0xbeef4ccb	-0.46738276
103	0x3e0c610d	0.13708897
104	0xbebe7192	-0.37196022
105	0xbf1fb2ec	-0.6238239
106	0xbdf9c7df	-0.121963255
107	0xbf12a9f4	-0.5729058
108	0xbed3c89f	-0.41364
109	0x3cbc9c91	0.023023875
110	0xbec7ced1	-0.39024976
111	0x3eb0f46a	0.34561473
112	0xbea5e9a1	-0.32404807
113	0xbedd7aa2	-0.43257624
114	0xbdc8f84c	-0.09812984
115	0xbf0e066f	-0.55478567
116	0xbdd11d9f	-0.10210728
117	0xbe2ac5b1	-0.16676976
118	0xbeeeb228	-0.46620297
119	0x3e88e5c3	0.26737794
120	0xbb5fdbdc	-0.0034158146
121	0xbe128720	-0.14309359
122	0x3cabddd7	0.020979805
123	0xbeef51be	-0.46742052
124	0xbe85f753	-0.26165256
125	0x3d6823b1	0.056674663
126	0xbeb92be1	-0.3616629
127	0x3e9e045f	0.3086271
128	0xbe48170e	-0.19540045
129	0x3e1290f3	0.14313106
130	0x3ed9e232	0.42555386
131	0x3e49d513	0.19710188
132	0xbcde0c17	-0.027105374
133	0xbdd33b7c	-0.1031408
134	0x3d598868	0.053108603
135	0x3e976694	0.29570448
136	0x3e376438	0.17909324
137	0x3ef29102	0.47376257
138	0x3e17ad8e	0.148123
139	0xbe3e1ca7	-0.18565618
140	0xbefadf0d	-0.489983
141	0xbcc43c6c	-0.023954593
142	0x3d841ad2	0.06450428
143	0x3dbcfef3	0.09228315
144	0x3dfa62f4	0.12225905
145	0x3e3c5737	0.18392645
146	0x3ee29516	0.4425437
147	0x3ebc5c82	0.36789328
148	0xbe9080c6	-0.28223246
149	0xbebe3759	-0.37151602
150	0xbdecafef	-0.11556994
151	0x3e0ab9c4	0.13547426
152	0xbe2965c1	-0.16542722
153	0x3df70fb9	0.12063546
154	0x3e40efab	0.18841426
155	0x3c41287e	0.011789439
156	0xbe9b1e24	-0.30296433
157	0xbe1c2445	-0.1524821
158	0x3d574136	0.052552424
159	0x3e345f73	0.17614536
160	0xbe31c34e	-0.17359659
161	0x3eeb3c6c	0.45944536
162	0x3e64d903	0.22348408
163	0x3e17682d	0.14785834
164	0xbe066243	-0.13123421
165	0xbeaa20c4	-0.33228123
166	0xbe0248df	-0.1272311
167	0x3d9b21c7	0.07574802
168	0x3e09e650	0.13466763
169	0x3e17ee74	0.14837056
170	0x3e9c94fa	0.3058241
171	0xbca5d155	-0.020241419
172	0xbdfa1adf	-0.122121565
173	0xbda4d110	-0.08047688
174	0x3e850157	0.25977585
175	0x3e192b62	0.14957955
176	0x3d94eca2	0.072716966
177	0x3e86494d	0.262278
178	0x3ea074f6	0.31339234
179	0x3db290e9	0.08719046
180	0xbe4a46c7	-0.19753562
181	0x3eb84dab	0.35996756
182	0x3eaf302a	0.34216434
183	0x3e25c7e8	0.1618954
184	0xbe07b222	-0.13251546
185	0x3ed9c953	0.4253641
186	0x3eb6b404	0.35684216
187	0x3e969266	0.29408568
188	0xbd88fba2	-0.0668862
189	0xbea0b892	-0.31390816
190	0x3d3792e3	0.044817816
191	0x3dd8aa76	0.10579388
192	0xbe34f2b1	-0.17670704
193	0xbdaff702	-0.08592035
194	0xbdbe9dd8	-0.0930745
195	0xbd079d46	-0.033108972
196	0xbe987b95	-0.29781786
197	0xbec1fb10	-0.37886858
198	0xbe26dd13	-0.1629527
199	0xbd0d0425	-0.03442778
200	0xbe1d8094	-0.1538108
201	0xbedb25e0	-0.42802334
202	0xbd127210	-0.03575331
203	0xbdf6ee17	-0.12057131
204	0xbe814a96	-0.25252217
205	0xbd1491bb	-0.036271792
206	0xbe1e23db	-0.15443365
207	0x3e2f61ba	0.17127123
208	0x3e2cce4a	0.16875568
209	0xbef337a0	-0.47503376
210	0x3c8ab461	0.016931714
211	0x3cb6329f	0.022240935
212	0xbe80cd60	-0.2515669
213	0xbdb4bf00	-0.08825493
214	0xbedc7ba2	-0.43063074
215	0xbde9df9e	-0.11419605
216	0xbb282f63	-0.002566301
217	0xbe9cd9b5	-0.30634847
218	0x3ca674b2	0.020319317
219	0xbe11d97d	-0.14243121
220	0xbea161c2	-0.31519896
221	0x3e02e29f	0.12781762
222	0xbea78fc1	-0.32726863
223	0xbd8f46c9	-0.06995923
224	0xbd56bc4b	-0.052425664
225	0xbd65c2a2	-0.05609382
226	0x3da29305	0.07938198
227	0xbe5f6470	-0.21815658
228	0xbeab9ffc	-0.33520496
229	0xbc8784d9	-0.016542839
230	0xbdf5bb69	-0.11998636
231	0xbd382612	-0.04495818
232	0xbd74385d	-0.059624065
233	0xbe5fbe0f	-0.21849845
234	0x3d974680	0.07386494
235	0xbe4dbb12	-0.20090893
236	0xbe9a3900	-0.30121613
237	0xbd1d230c	-0.0383635
238	0xbe7d6a3c	-0.24747556
239	0xbe49ef07	-0.19720088
240	0x3e418fd0	0.18902516
241	0xbe5553fc	-0.20832819
242	0x3e4a19df	0.19736432
243	0xbe894019	-0.26806715
244	0xbec811ec	-0.39076173
245	0xbedc4294	-0.43019545
246	0xbece21f5	-0.40260282
247	0xbcf5c768	-0.03000231
248	0x3e880d2e	0.26572555
249	0xbeaeaa75	-0.34114423
250	0x3e3819ea	0.17978635
251	0xbedc522f	-0.4303145
252	0xbd08f7b0	-0.03343934
253	0xbdeb896a	-0.11500819
254	0xbef45797	-0.47723076
255	0x3c94bfe9	0.018157916

layer_one.a f4 [8, 16, 1]
0	0xbb8ff221	-0.0043928777
1	0x3e15be54	0.14623386
2	0xbeb8d8d0	-0.36102915
3	0xbda5d683	-0.080975555
4	0x3f494b0d	0.78630143
5	0x3f081d29	0.53169495
6	0x3e942d5c	0.28940856
7	0xbe62e39b	-0.22157137
8	0xbe0f42a6	-0.13990268
9	0xbea3364b	-0.3187736
10	0xbf61426b	-0.8799197
11	0x3ebf290d	0.37336007
12	0x3f555ab5	0.8334153
13	0x3ecde148	0.40210938
14	0xbe524eff	-0.20537947
15	0xbf04a29a	-0.5181061
16	0x3dd61ca0	0.104546785
17	0xbdbc7bc2	-0.092032924
18	0xbded1acb	-0.11577376
19	0xbf02963c	-0.5101049
20	0x3e3cace8	0.18425333
21	0x3ea5ae0d	0.32359353
22	0xbe92805f	-0.28613564
23	0xbdb8ba80	-0.09019947
24	0x3e9ceef4	0.30651057
25	0xbeb32e2e	-0.3499617
26	0xbe0611bd	-0.13092704
27	0xbf28f6e6	-0.6600174
28	0x3f528341	0.8223153
29	0x3ef8c043	0.48584184
30	0xbedd6c05	-0.43246475
31	0xbefa8a86	-0.4893381
32	0x3c2eab70	0.010660991
33	0x3e22b0b3	0.15887718
34	0xbe51751a	-0.20454827
35	0xbe2c7afd	-0.16843791
36	0x3f2102bc	0.628948
37	0x3ede8a78	0.43465018
38	0xbc8ec74a	-0.017429013
39	0xbd9ab9e8	-0.0755499
40	0xbf203030	-0.6257353
41	0xbdb8225a	-0.08990927
42	0xbf209e83	-0.6274187
43	0x3e32f5f0	0.1747663
44	0x3f33074b	0.69933003
45	0x3ebeb240	0.3724537
46	0xbed83209	-0.42225674
47	0xbf121bd4	-0.5707371
48	0x3e907f4a	0.28222114
49	0x3edd30cc	0.43201292
50	0xbe94b526	-0.29044455
51	0xbf39cb93	-0.72576255
52	0xbea0a196	-0.3137328
53	0x3b370ca4	0.0027931118
54	0xbf33d855	-0.7025197
55	0xbea8d2bb	-0.32973275
56	0x3f54150c	0.82844615
57	0x3e9b2af5	0.3030621
58	0xbef0a8f7	-0.4700391
59	0xbebf3a83	-0.37349328
60	0xbdd05460	-0.10172343
61	0xbee9f43d	-0.45694152
62	0xbf2d1f1b	-0.6762559
63	0xbf03f883	-0.51551074
64	0x3f26d13d	0.6516302
65	0x3ee54290	0.44777346
66	0xbed651af	-0.41859195
67	0xbf13b796	-0.57702005
68	0xbe01ae55	-0.12664159
69	0xbd74c3e6	-0.059757136
70	0xbf408ad6	-0.75211847
71	0xbcd40b9b	-0.02588444
72	0x3d4d3bfd	0.050106037
73	0x3ed62e91	0.41832402
74	0xbf27e5c1	-0.6558495
75	0xbf059fc0	-0.52196884
76	0xbea6f371	-0.32607606
77	0xbe568a13	-0.20951109
78	0xbf6a2d06	-0.9147495
79	0xbf3ee3b7	-0.74566215
80	0x3e144ede	0.1448321
81	0x3dd7ae28	0.105312645
82	0xbeb82a52	-0.35969788
83	0xbf503822	-0.8133565
84	0xbea977d7	-0.33099243
85	0x3ede3ae5	0.43404308
86	0xbf2ed374	-0.682914
87	0x3b8e1f22	0.0043372074
88	0xbf19dd42	-0.6010324
89	0x3eae7d05	0.34079757
90	0xbf0dfa6d	-0.55460244
91	0xbf3d5401	-0.73956305
92	0xbebb24c2	-0.3655148
93	0x3f2ad9ea	0.6673876
94	0xbecdc5b6	-0.40189904
95	0xbf6a0974	-0.91420674
96	0x3e539c30	0.2066505
97	0xbdb424d3	-0.08796086
98	0xbf6ad2d5	-0.91727954
99	0xbf02bada	-0.5106636
100	0x3e218f8e	0.15777418
101	0x3e3c60a9	0.18396248
102	0xbea4c6be	-0.32182878
103	0xbdec2312	-0.11530127
104	0x3ed77f7e	0.42089456
105	0xbf2b6ca8	-0.6696267
106	0xbf1f9dd6	-0.62350214
107	0xbf8a725d	-1.0816151
108	0x3eccd9dc	0.40009964
109	0x3d859510	0.06522572
110	0xbe3b2e7a	-0.18279448
111	0xbf07ddc6	-0.53072774
112	0x3f069316	0.52568185
113	0x3e54f6e4	0.20797306
114	0xbd9b43f8	-0.075813234
115	0xbe73b8f4	-0.23801023
116	0xbec0650a	-0.37577087
117	0xbcc5caee	-0.024144616
118	0xbf6ec94d	-0.9327591
119	0xbddd5e5c	-0.10809013
120	0x3f30fe67	0.6913819
121	0x3efbe731	0.49199823
122	0x3eda16b4	0.42595446
123	0xbf56b883	-0.8387529
124	0x3ddca80c	0.1077424
125	0xbddb5104	-0.10708812
126	0xbf50c2b2	-0.8154708
127	0xbf0750be	-0.5285758

layer_two.W f4 [8, 7]
0	0xbfe775fd	-1.8082882
1	0xc0270278	-2.6095257
2	0x4043ef78	3.061491
3	0xc0032030	-2.0488396
4	0xbfd9b112	-1.7007163
5	0x3f447532	0.76741326
6	0x401fed7c	2.49887
7	0x403d53f6	2.9582496
8	0xc03b2968	-2.9244022
9	0x40453d48	3.0818653
10	0xbf9bc465	-1.216931
11	0xc0170a29	-2.3599951
12	0x3ed2e2df	0.41188714
13	0xbf9f7812	-1.2458518
14	0x40209558	2.5091152
15	0x401d7121	2.4600298
16	0xc00c9ba1	-2.1969988
17	0xc027cd36	-2.6219
18	0xbf63340e	-0.88751304
19	0x3fb5853b	1.4181284
20	0x4033b254	2.8077593
21	0x3f4c486b	0.79798
22	0xbdb13b52	-0.086538926
23	0xbfe97e7d	-1.8241726
24	0x403f120b	2.9854763
25	0xc0274df0	-2.614132
26	0x3f357ac3	0.70890445
27	0x4031ab8c	2.7760954
28	0xbfd92ce0	-1.696682
29	0x3fa5edbc	1.2963176
30	0x3ff22c68	1.8919802
31	0x401b1f90	2.4238014
32	0xc0344518	-2.8167171
33	0xc02cfbff	-2.7028806
34	0xc00ace17	-2.1688287
35	0xc0116367	-2.271692
36	0x401f0aa7	2.4850252
37	0x402ad57f	2.6692808
38	0xc04b7f00	-3.1796265
39	0xbff01bf9	-1.8758537
40	0x3f93dd7f	1.155197
41	0xbf87aa36	-1.0598819
42	0x3dea19e8	0.114307225
43	0x3f37630a	0.71635497
44	0xc00c346b	-2.1906993
45	0x4067c560	3.6214218
46	0xbfeecf92	-1.8657095
47	0x401fb620	2.495491
48	0x3eddacae	0.43295807
49	0x40394e30	2.8953972
50	0x4008df8e	2.1386447
51	0xc04187bf	-3.0239103
52	0x3d948745	0.07252363
53	0x3fca6330	1.581152
54	0x3fd5a931	1.6692258
55	0xbe840614	-0.25785887

layer_two.a f4 [1, 14, 1]
0	0x3cb5cd91	0.022192748
1	0x3cb8daa0	0.022565186
2	0xbd7e82e5	-0.06213655
3	0xbc87409f	-0.016510306
4	0x3dfcc7a1	0.12342764
5	0x3c68495b	0.014177646
6	0xbc20c192	-0.009811776
7	0x3dbbda57	0.091725044
8	0x3dcf10d8	0.101106346
9	0x3d77348c	0.060352847
10	0x3dc37e08	0.09545523
11	0x3e1ac04f	0.15112422
12	0x3d4bcda3	0.049756657
13	0x3d5e48c5	0.054268617
