models/model_epoch_500.safetensors (safetensors, 367960 bytes, 4 tensors)

layer_one.W f4 [1433, 64]
000000 93 31 b0 be 6c b7 a1 3d c9 6e 66 3e f8 fb 46 3e
       -0.34412822 0.07896313 0.22503199 0.19432056
000010 f0 69 b9 3d 1f 23 c6 be 85 3d 95 3d ed 28 bd 3e
       0.09053409 -0.3869867 0.072871245 0.36945286
000020 c9 2f 2d bf 9a 9a 15 3e d6 f3 a1 3d 38 d6 52 3e
       -0.6765104 0.14609757 0.07907836 0.2058953
000030 9b fc cc bd 23 35 22 be d3 4b c8 3d f3 97 a0 3e
       -0.10009118 -0.15840583 0.09780087 0.31365928
000040 77 21 a5 be 0c 7b 7a 3e 80 58 a8 3e 58 ec 0b 3e
       -0.32252094 0.24461001 0.3288002 0.13664377
000050 b8 db 28 3e 53 25 e7 be 98 9d a9 bd 03 a5 e0 3e
       0.16490066 -0.45145664 -0.08282012 0.43875894
000060 6e 58 35 bf e9 5f c9 3e 3f 17 a5 3e dd 82 1a be
       -0.7083806 0.39330986 0.32244298 -0.15088983
000070 94 db bc bd ca f2 cf be 9f 23 d2 bd 79 5d 17 3f
       -0.09221569 -0.4061492 -0.102607004 0.59127
000080 56 41 1e bf d9 63 19 3e f1 56 c7 3d 78 37 c1 3e
       -0.61818445 0.14979495 0.0973338 0.37737632
000090 d2 b8 8b bd 85 8f ff bd b1 53 2a 3e f1 30 b4 3e
       -0.06822361 -0.12478546 0.16633488 0.3519359
0000a0 fe 51 0f bf 15 33 ad 3d a0 f1 81 be b0 07 ff 3d
       -0.55984485 0.08457009 -0.25379658 0.12452638
0000b0 71 59 17 ba 1c b5 bc be 21 62 0b 3c 2f dc 6b 3e
       -0.00057735207 -0.36856925 0.0085072825 0.23033212
0000c0 db 3e 12 bf 5d 99 1e 3e 88 98 8b 3d db 8e 29 3e
       -0.5712716 0.15488191 0.068162024 0.16558401
0000d0 14 93 d4 3d e5 b5 86 be 03 fe f0 3d 47 34 8a 3e
       0.103796154 -0.2631065 0.11767199 0.2699301
0000e0 3b 1a ce be 5b 1e 79 3e a5 69 91 3e 84 6e 4c 3e
       -0.40254387 0.24327986 0.28400913 0.19964033
0000f0 a0 83 56 3e c4 ad 81 be 5c 6f 68 3d 45 eb af 3e
       0.20948648 -0.25327885 0.056746826 0.34359184
000100 67 b8 95 be 42 b0 9b be 28 4e 33 bd 57 39 2e be
       -0.2924225 -0.30407912 -0.043775707 -0.17014061
000110 80 47 bc bd 66 5b a2 bd df 89 91 be 8b 1b 01 3e
       -0.09193325 -0.07927589 -0.284255 0.12608163
000120 04 d2 24 be c1 08 d3 be 5c ef d2 bd c9 50 fb be
       -0.1609574 -0.41217616 -0.102995604 -0.49085072
000130 b3 19 83 be c1 fb 43 bd 03 d6 d0 bd f7 7f 00 3e
       -0.25605544 -0.047847513 -0.101970695 0.12548815
000140 47 91 08 be c1 0b 8b be 80 dd c4 3a fe 45 25 bf
       -0.13336669 -0.27157405 0.0015019625 -0.64559925
000150 7d 91 3f be 8e a9 8b bd 75 c0 b8 be c7 d7 a5 3e
       -0.18707843 -0.06819449 -0.36084333 0.32391188
000160 3f 5a fb bd b9 bb a2 be 62 ca 4e be a5 e6 e1 be
       -0.122730725 -0.31783846 -0.2019439 -0.4412128
000170 19 6a f0 be 88 65 16 3d be 22 a0 be 92 e5 13 bb
       -0.46955946 0.03671792 -0.31276506 -0.0022567254
000180 24 45 a2 bd a8 5f dd bd da 12 c1 bd a2 a1 e0 be
       -0.07923344 -0.108092606 -0.09427424 -0.43873316
000190 42 2c 94 be a0 55 a7 3d 7f 7e b4 be 9a af 62 3d
       -0.28940016 0.081706285 -0.3525276 0.055343248
0001a0 f6 ff 5a be 23 02 da be 57 e9 31 be d4 90 05 bf
       -0.21386704 -0.42579755 -0.17374168 -0.52174115
0001b0 9c 20 4d be 46 a3 04 bc 37 54 bf be 69 50 55 3e
       -0.2003197 -0.008095568 -0.37368938 0.20831455
0001c0 82 c8 64 be 59 0d a7 be ce 9d bb bd 83 67 07 bf
       -0.22342113 -0.3262737 -0.09160958 -0.5289232
0001d0 86 7e 28 be 51 79 d9 bd 6c 05 e6 be 69 5d 30 3e
       -0.16454515 -0.106188424 -0.44926012 0.17223133
0001e0 97 24 23 3d 17 9a 8e 3c c7 fa 32 3d e2 58 e1 be
       0.039829817 0.01740746 0.04369619 -0.44013125
0001f0 87 30 5b be c7 db aa bd 79 e3 b3 be d2 ec 03 3e
       -0.2140523 -0.083427005 -0.35134485 0.12883309
000200 33 80 5c bd de 41 81 3e 85 5a ce 3c aa 98 24 3e
       -0.053833198 0.25245565 0.025189647 0.16073862
000210 5c 91 a7 3d ae db 3d be c7 65 0c be 36 fa 3d 3d
       0.08182022 -0.18540832 -0.137107 0.046381198
000220 7f ce c4 3d e0 53 d2 3e 73 38 a1 3d af c8 33 be
       0.096096985 0.41079617 0.07872095 -0.17557023
000230 86 69 9b be 79 09 ec bd 5d 03 49 bd ab fa 7e 3e
       -0.30353945 -0.11525244 -0.049075473 0.2490031
000240 34 19 58 3e 78 87 7a 3e d8 3a 84 3e 34 c1 15 3e
       0.21103364 0.2446574 0.25826144 0.14624482
000250 5e 32 45 be 09 4d 9f be d8 39 21 be 8f 8f 69 3d
       -0.19257495 -0.3111346 -0.15744722 0.057021674
000260 51 94 6c be 9c 46 2a 3e 5c 8c e4 3d 2e d1 cc 3c
       -0.23103453 0.16628498 0.11159584 0.025002088
000270 58 43 66 be 52 bf d5 bd 08 6b 61 b9 5e be 69 3e
       -0.22486627 -0.10436882 -0.00021497544 0.22826526
000280 32 2f 18 be 34 54 b8 3e 3c 2c ed 3d 1f 9d a2 3d
       -0.14861754 0.36001742 0.11580703 0.07940125
000290 5d d0 9b 3d c0 d9 ab be 34 d2 41 be d4 58 36 3d
       0.076081015 -0.33564568 -0.18927842 0.044518307
0002a0 0f e1 a0 3d 01 5c fe 3d 9a dc ac 3e fb ff c1 bd
       0.078554265 0.12419892 0.33762056 -0.094726525
0002b0 b9 7d 3d be 46 91 20 be 80 17 53 3e 7f c9 03 3e
       -0.1850499 -0.15680417 0.20614433 0.12869833
0002c0 9d 81 e2 3d 60 eb 4a 3e c3 08 a6 3e 7c 1f 8a bc
       0.11059878 0.19816351 0.3242856 -0.016860716
0002d0 11 b9 5a be ff c4 18 3e 93 b2 83 3e 51 0b 4c 3e
       -0.2135966 0.14918898 0.2572218 0.19926192
0002e0 93 c9 65 3d 4b c8 9a 3e 25 aa c1 3d 4c 6c 22 3e
       0.05610044 0.30230936 0.094562806 0.15861624
0002f0 27 76 7d bd 7e 73 83 be f0 41 21 bd e0 45 22 3e
       -0.061880257 -0.2567405 -0.039369524 0.15846968
000300 9b 09 90 bd aa 52 27 bc 48 58 e3 bd 92 e9 27 be
       -0.07033082 -0.01021258 -0.11100823 -0.16397694
000310 0a 4d 71 be 45 c5 6f be 8e 03 c9 bd ba 29 42 be
       -0.23564544 -0.23415096 -0.09815131 -0.1896123
000320 95 31 5a bd f9 f7 92 be af 1d 84 3c 14 c1 ec bd
       -0.05326994 -0.28704813 0.016127435 -0.11560264
000330 33 cf 0c be d4 fa a4 bc 9c 98 74 bd 47 1f 9e 3c
       -0.13750915 -0.020139135 -0.059715852 0.019302024
000340 09 6c 02 3d 0b 04 a1 be a5 9c 03 be a8 41 24 bc
       0.03184131 -0.31448397 -0.12852724 -0.010025419
000350 0f df 5f be f8 a5 46 be 33 e7 a2 be 20 65 f2 bd
       -0.21862434 -0.1939925 -0.31817016 -0.11835694
000360 75 af 6c bd 7d 5e 70 be fa 8d 83 3d a1 1d 3f be
       -0.057784516 -0.23473544 0.06423564 -0.18663646
000370 69 cc 7f bd 40 12 eb 3d 9c 7c 10 be e9 e4 4f be
       -0.0624508 0.1147809 -0.14110035 -0.20302166
000380 05 4c cc bc da 33 42 bd a2 d2 c7 bc 4d bb a8 be
       -0.024938593 -0.04741273 -0.02439243 -0.329554
000390 4e 49 84 be 66 3b 8c 3c 81 54 10 3e cb c6 a7 bd
       -0.25837177 0.017118167 0.14094736 -0.081922136
0003a0 77 ed 6f bd 13 69 66 be fb 1d ba 3c d0 9c 49 be
       -0.058576073 -0.2250102 0.022719374 -0.19688725
0003b0 59 5e 9c be 8b 9c b2 bd e8 ec 68 be ef c7 4a be
       -0.30540732 -0.087212645 -0.22746623 -0.19802831
0003c0 df ff 4d 3e 45 25 a1 be 3d 38 d8 3b d3 58 ac be
       0.20117138 -0.31473747 0.006598501 -0.33661518
0003d0 8b a0 d8 bd c9 75 78 be 75 1f 89 be a2 a1 8c bd
       -0.10577496 -0.24263681 -0.26781812 -0.068667665
0003e0 71 35 db 3d c9 1d 68 be 22 c1 b7 3d b8 c6 92 be
       0.107035525 -0.22667612 0.08972384 -0.28667235
0003f0 8a 98 ce 3d b2 13 2a 3d 25 86 7d be 09 c3 39 3d
       0.10087688 0.04152269 -0.24758203 0.045352016

layer_one.a f4 [8, 16, 1]
000000 fd 16 08 bd c4 9c 1f be 3e f9 32 be 54 24 79 3b
       -0.03322505 -0.15587145 -0.17477891 0.0038016038
000010 7f 8f 35 3f f1 a2 25 3e 0e aa a4 3e 8f 0c 0d be
       0.7092208 0.16175438 0.3216099 -0.13774322
000020 e3 1f 3e be 9d da 00 bf dc ad 74 bf 19 8d cf 3e
       -0.18566851 -0.5033358 -0.9557779 0.40537336
000030 ae 93 7b 3f 03 67 c9 3e ae 48 bd be 10 5c a1 be
       0.98272216 0.39336404 -0.36969513 -0.3151555
000040 b8 15 6b 3e 6e 14 0f 3d 8e 72 c6 bb 76 79 89 be
       0.22957504 0.034931593 -0.0060561365 -0.2685048
000050 ce 3f 2c 3e 7d f5 e5 3d 4a cc a3 be d0 dd 6b be
       0.16821215 0.11228464 -0.31991798 -0.23033834
000060 bf d1 0f 3f e8 2c 89 be a2 59 86 bd 39 2b 3d bf
       0.5617942 -0.26792073 -0.06560065 -0.7389408
000070 5c e3 67 3f db 7e 83 3e 5b ae f9 be 56 ae 09 bf
       0.905813 0.2568272 -0.48765835 -0.5378164
000080 87 05 84 bb e1 ea 52 3e b1 76 c1 bd 98 61 da 3c
       -0.004028979 0.20597412 -0.09446467 0.026657864
000090 ab 66 29 3f 3f 7e be 3e b7 fb de 3d 7b fb 13 be
       0.66172284 0.37205693 0.108878545 -0.14451401
0000a0 54 1f 61 bf ac b1 81 bd be 75 44 bf c3 10 91 3e
       -0.8793843 -0.06332716 -0.7674216 0.283331
0000b0 4a fd 8a 3f 47 41 ee 3e 7d c9 6e be df d3 eb be
       1.0858548 0.46534178 -0.23319049 -0.46060082
0000c0 89 82 89 3e 2e f9 06 3f a5 28 89 be 67 41 a9 be
       0.26857403 0.5272397 -0.26788822 -0.3305771
0000d0 af ab 5d be d7 d4 aa 3d 83 fb 07 bf 6b 99 5d be
       -0.21647523 0.08341377 -0.5311815 -0.21640556
0000e0 13 37 57 3f 80 cf d3 3e af 6c 2c bf aa 13 ef be
       0.8406841 0.41369247 -0.6735334 -0.4669469
0000f0 76 ae 34 bc 58 27 ee be 46 f9 2c bf d0 59 0f bf
       -0.011027923 -0.46514392 -0.6756786 -0.5599642
000100 d0 7e 15 3f 2f 49 f4 3e 75 ac e0 bd dc 5a 95 be
       0.58396626 0.47712085 -0.109703936 -0.29170883
000110 e1 6a 4c bd 91 d8 c6 bd a3 0c 2e bf eb b6 9d bd
       -0.049906615 -0.097092755 -0.6798803 -0.077009045
000120 b3 13 20 3d ab 90 9c 3e af 75 3c bf 7c e4 37 be
       0.039081287 0.30579123 -0.7361707 -0.17958254
000130 9e cd ad be 33 1f a8 be de 2c 6f bf dc 29 45 bf
       -0.33945936 -0.32836303 -0.93427837 -0.77017
000140 b6 9d 17 3e 1f ce f8 3d 16 34 96 be 5b b1 11 bf
       0.14806256 0.121486895 -0.29336613 -0.5691125
000150 a1 f0 3d be 12 8d be 3e 11 48 ee be 10 ff 39 3d
       -0.18548824 0.37217003 -0.46539357 0.045409262
000160 d1 99 2f bf 1d 16 a3 3e 43 47 0a bf 35 1e 53 bf
       -0.6859408 0.3185281 -0.54014987 -0.8246797
000170 cb e4 f7 be 94 6c 32 3f de 13 8a be 62 ca 6a bf
       -0.48416743 0.6969693 -0.26968282 -0.9171506
000180 58 4c 7a 3e d4 eb af bd f4 b0 40 bf d0 6e af be
       0.24443185 -0.085899025 -0.7527001 -0.3426423
000190 76 64 98 3d de c2 00 3e 06 3b 17 be de 94 f0 bd
       0.074410364 0.12574336 -0.1476861 -0.11747144
0001a0 1b 0f cf 3e 1a e5 4f bf 87 2f 18 bf b6 c7 98 bf
       0.40441212 -0.81208956 -0.5944752 -1.1935947
0001b0 62 c5 a1 3e 80 e0 f8 3c 2e 7d a2 be 25 90 0e bf
       0.31595904 0.030380487 -0.3173613 -0.556887
0001c0 bf 2f d9 3e c6 cb 88 3e 2f 6b 0d 3d ad 08 62 be
       0.4241924 0.26717967 0.034526046 -0.22073622
0001d0 cf a0 dd be 36 b1 52 bd 00 2b 44 bf 1f 00 51 be
       -0.4328675 -0.051438533 -0.7662811 -0.20410202
0001e0 db 28 ed 3e 09 27 2d 3f e7 04 ba 3e d6 e2 32 bf
       0.46320233 0.6763769 0.36331865 -0.69877374
0001f0 e1 05 c4 3e 06 6c 05 be b1 8f 57 bf 16 85 03 bf
       0.38285735 -0.13029489 -0.8420363 -0.5137495

layer_two.W f4 [8, 7]
000000 d1 77 b7 bf 0a 00 ef bf 3e 42 19 40 80 3e c0 bf
       -1.433344 -1.8671887 2.394668 -1.5019073
000010 65 18 85 bf d9 83 3b 3f 0c 42 ea 3f 3f 49 16 40
       -1.039807 0.7324806 1.8301406 2.3482206
000020 96 85 15 c0 bf 03 0b 40 7d e7 8e bf d4 b4 c9 bf
       -2.3362784 2.1721036 -1.1164395 -1.5758309
000030 70 2c 90 3e 23 09 12 bf 25 75 f1 3f 9c a0 c9 3f
       0.28158903 -0.5704519 1.8863875 1.5752139
000040 17 f2 d0 bf 06 73 09 c0 ac 0a 29 bf 1e 00 84 3f
       -1.632388 -2.1476455 -0.6603191 1.0312536
000050 a9 4b f9 3f 16 05 0a 3f e7 08 ac 3e 75 32 98 bf
       1.9476215 0.5391401 0.33600542 -1.1890398
000060 c9 3b 14 40 57 ed 01 c0 fe 89 14 3f 7c 07 e2 3f
       2.316149 -2.030111 0.5802306 1.7658534
000070 f4 03 d3 bf 6c 26 b1 3f 6b ee a8 3f 04 55 02 40
       -1.6485581 1.383985 1.3197759 2.036439
000080 18 ba 0b c0 87 ca f2 bf ec 00 cf bf ff 6e eb bf
       -2.1832333 -1.8968056 -1.6172156 -1.8393248
000090 5f ff fb 3f 28 1f 04 40 4b 2c 12 c0 e6 66 b2 bf
       1.9687308 2.0644016 -2.2839534 -1.3937652
0000a0 f8 39 62 3f 12 83 08 bf df 0d bf 3d dd 1c 49 3f
       0.88369703 -0.53325 0.093288176 0.78559667
0000b0 d6 8a c2 bf f5 31 24 40 42 92 a8 bf 49 d6 9a 3f
       -1.5198619 2.5655491 -1.3169634 1.2096645
0000c0 4d 02 bd 3e 73 b4 04 40 1b 04 b0 3f 37 c0 12 c0
       0.36915818 2.0735137 1.3751253 -2.2929819
0000d0 46 eb ad 3e 02 a5 7e 3f d2 7c 68 3f 6b 88 5f 3c
       0.33968562 0.9947053 0.9081546 0.013643364

layer_two.a f4 [1, 14, 1]
000000 3a 06 8e bd e3 17 8d bd dc 75 0a 3b 03 a3 28 bd
       -0.069347814 -0.06889322 0.0021127379 -0.041171085
000010 b4 22 2c 3e 57 7c d7 bd d0 94 a1 bd 85 8e 09 3e
       0.16810113 -0.10521763 -0.07889712 0.13433273
000020 ab c8 58 3e 0f 2c 35 3e ec 6a 41 3e 5c 13 a4 3e
       0.21170299 0.17692588 0.18888444 0.3204602
000030 b3 d8 e1 3d 66 ab 49 3e
       0.1102766 0.1969429
