models/model_epoch_200.safetensors (safetensors, 367960 bytes, 4 tensors)

layer_one.W f4 [1433, 64]
000000 4b a4 8e be 12 58 0d bd 02 1d 68 3e 9f cc b0 3d
       -0.2785972 -0.03450782 0.22667316 0.086327784
000010 76 27 89 bd 55 37 75 be 3d b8 61 3d e1 bf 67 3e
       -0.0669698 -0.23946889 0.055107344 0.2263179
000020 d6 6f 9d be 96 f4 b4 3d c5 6d a3 3d de 3e 52 3e
       -0.30749387 0.088357136 0.07979921 0.20531794
000030 c8 bf 00 be 4c 3e 43 be 64 09 16 bd 48 00 98 3e
       -0.12573159 -0.19066733 -0.03663005 0.29687715
000040 d0 08 9b be 44 78 4c 3e 11 e0 28 3e 57 40 eb 3c
       -0.3028016 0.19967753 0.16491725 0.028717203
000050 42 12 5a 3e 19 39 6a be 5a 0e ad bd 68 81 23 3e
       0.21296027 -0.22873344 -0.08450003 0.15967333
000060 f3 4e b4 be 8f 44 40 3e 46 8f 37 3e 0a 2f 2e be
       -0.35216483 0.18776153 0.17925748 -0.17010131
000070 58 29 82 bd dd 44 7b be 73 d9 e0 bd da 50 c2 3e
       -0.06355542 -0.24537988 -0.10978975 0.3795231
000080 af 00 a9 be c9 cd 09 3c 52 97 cd 3c fa 7d 86 3e
       -0.33008334 0.008410879 0.02509657 0.26267987
000090 7c 7b 27 3c 9d bc 60 be 21 db c0 3b b1 22 7f 3e
       0.010222312 -0.2194695 0.005885497 0.24915577
0000a0 e8 50 cb be c1 27 d3 3d e1 83 2d be a9 7d 1e 3d
       -0.39710164 0.10310317 -0.16944839 0.038694058
0000b0 53 51 49 bd 04 e9 65 be 7b 35 1b be 93 0a 70 3e
       -0.049149822 -0.2245217 -0.1515712 0.23441534
0000c0 90 30 ce be c1 d6 c3 3d 31 4f f2 3d f5 91 14 3c
       -0.40271425 0.095624454 0.11831511 0.009068002
0000d0 39 82 2e 3c 45 ba 6a be 44 be 80 bc 24 ca 32 3e
       0.010651165 -0.22922619 -0.015715726 0.17459923
0000e0 12 b2 6c be 55 59 2d 3e a1 0f 41 3e 19 e0 49 bd
       -0.23114803 0.16928609 0.18853618 -0.04928598
0000f0 41 ca 3d 3d 1e 8b b5 bd 6d da 1d bd 51 ef 27 3e
       0.046335462 -0.08864425 -0.038538385 0.16399886
000100 b2 92 82 be 6b 21 82 be 5b 7a 98 bd 3a 18 41 be
       -0.25502545 -0.2541612 -0.074452125 -0.18856898
000110 04 4f 32 bd 3a b1 4e 3c dd f7 58 bd 7f a8 1d bc
       -0.043532386 0.012615496 -0.052970756 -0.009622692
000120 16 d6 00 be 3c e6 aa be 58 d3 7f bd 7e 01 a4 be
       -0.12581667 -0.3337878 -0.062457412 -0.32032388
000130 5e 18 12 be 43 de c8 bd 47 d6 03 bc d7 5b f3 3c
       -0.14267108 -0.09808018 -0.008046693 0.029706879
000140 dd 32 dc bd f6 df 1f be e3 90 ea 3c 0e e8 b0 be
       -0.10751889 -0.15612778 0.02863354 -0.34552044
000150 77 33 f5 bc 5e 68 7a bd ba 9b 45 be 41 34 49 3e
       -0.029931767 -0.06113469 -0.19297686 0.1964884
000160 02 95 88 bd 3e 94 23 be cb 19 2f be fc 4f 89 be
       -0.06669046 -0.15974519 -0.17099683 -0.26818836
000170 44 b0 75 be 0a a2 32 3d ab 6f 19 be a8 fb 57 be
       -0.23993021 0.043611564 -0.14984004 -0.21092093
000180 c0 3b 64 bc de 07 2d be 41 8b 05 be b6 9c 97 be
       -0.013930261 -0.16897532 -0.13041402 -0.29611748
000190 fb d7 5b be b4 ec ca bc 6a b5 b6 be 00 ee c2 bd
       -0.21469109 -0.024771072 -0.35685283 -0.09518051
0001a0 1f 3b 31 be f0 9f 90 be 46 b7 9e bd f3 f0 b4 be
       -0.17307709 -0.28247023 -0.077498004 -0.3534008
0001b0 14 90 0e be a5 76 3d be 9b 2d 3a be 90 74 1e 3e
       -0.13922149 -0.1850229 -0.1818146 0.15474153
0001c0 27 43 a6 bd 92 bd 49 be 2d 56 2a be e1 77 c7 be
       -0.08118277 -0.19701222 -0.16634436 -0.38958648
0001d0 69 1e 9b bd 29 c2 0c be 85 7f 77 be ef f6 be 3d
       -0.0757416 -0.13745941 -0.24169739 0.093244426
0001e0 f8 0f 2c 3d 12 81 db 3c a5 13 3b 3d c4 c7 28 be
       0.042007416 0.026794944 0.04567303 -0.16482455
0001f0 d3 c0 98 bd 0b 95 13 be e0 12 2d be 25 8d bb 3d
       -0.07458653 -0.14412324 -0.16901731 0.091577806
000200 7e cf 06 be a3 21 5b 3e 29 db 12 3c 8b 28 28 3e
       -0.1316509 0.2139955 0.008963385 0.16421716
000210 76 94 8d 3c a6 cc 90 be e0 01 2b be 65 d8 c9 3c
       0.017282706 -0.28281134 -0.16699934 0.024639318
000220 c2 f2 25 bd 15 be 9b 3e c2 dc 46 3c 27 1e c1 bd
       -0.040514715 0.3041846 0.012137594 -0.09429579
000230 ef 15 8a be e9 6d 60 be 5a 10 31 bc 52 82 13 3e
       -0.2696986 -0.21916927 -0.010807121 0.14405182
000240 60 9e ac 3d 82 c8 b6 3d d8 88 0a 3e 44 04 d2 3d
       0.08428645 0.089249626 0.13528764 0.1025472
000250 52 90 a9 bd 56 59 0f be 0c ae 52 be 49 0f 93 3c
       -0.0827948 -0.13998923 -0.20574206 0.017951624
000260 90 d3 4f be 3e ed fc 3d f7 d2 0b 3d 93 24 3d bd
       -0.20295548 0.12349938 0.03413674 -0.046177458
000270 b0 18 3f be 36 c6 16 be 16 01 05 be f0 f8 c2 3c
       -0.18661761 -0.14724049 -0.12988696 0.023800343
000280 66 0c 0d be b7 e8 3b 3e 1c e8 cf 3d 51 16 a9 3d
       -0.13774261 0.18350492 0.10151693 0.0825621
000290 f3 91 9c bd f0 15 90 be 6c 8c 25 be 2d 2b 46 bd
       -0.07645025 -0.28141737 -0.16166848 -0.04838102
0002a0 85 a2 d5 bd 32 89 c8 3d 6d 8f 99 3d f1 e5 1b be
       -0.10431389 0.09791793 0.074980594 -0.15224434
0002b0 83 77 96 bd d4 1b e5 bd 39 b1 2b 3e 37 04 cd 3d
       -0.07347014 -0.111869484 0.16766824 0.100105695
0002c0 3c ac 64 bd 10 36 1f 3e ea 70 8d 3e 95 cb 35 3d
       -0.055828318 0.15547967 0.2762521 0.044383604
0002d0 26 b3 ae bd 6f 37 05 be d8 0e 13 3d 97 7b 21 3e
       -0.085302636 -0.13009427 0.035902828 0.15769802
0002e0 11 c3 66 3d 7c 1f 4e 3e 16 e9 42 3e b8 92 10 3d
       0.056338374 0.20129198 0.19034228 0.035296172
0002f0 b1 55 15 bd f1 90 7e be 24 9f 0a be 81 e4 e7 3d
       -0.036458675 -0.24859978 -0.1353727 0.113228805
000300 77 70 c8 bd 5b a9 2c be 13 0b 98 3c a0 56 49 bc
       -0.09787076 -0.16861479 0.018559968 -0.012288719
000310 63 43 5e bc 50 81 d8 bd 03 97 49 bd fe 90 ce bc
       -0.013565871 -0.105715394 -0.04921628 -0.025215622
000320 f5 51 00 3d de 10 38 be 7f 8b f1 bd 13 c0 aa bd
       0.03132816 -0.17975184 -0.11794185 -0.083374165
000330 00 20 99 bd 21 1e 51 bd 1e 0d 1d be 46 bf 15 3c
       -0.07476807 -0.051054124 -0.15337035 0.009139841
000340 f4 37 65 3c 91 8a d0 bd e0 70 18 3e 1c 05 8f 3d
       0.013990391 -0.101826794 0.14886808 0.069833964
000350 c4 89 4e be db e6 7c bd 1a 60 0d be 50 3f 3e 3e
       -0.20169741 -0.0617436 -0.13806191 0.1857884
000360 87 05 3f be b9 68 22 be d1 a3 2e bd 35 be d7 bd
       -0.18654452 -0.15860261 -0.042636696 -0.10534326
000370 d0 7f cb bd 26 6e 1c 3d db d0 06 be d5 11 95 bd
       -0.09936488 0.038190983 -0.1316561 -0.07278792
000380 07 5e bd bc 61 93 66 bd cc 50 40 bd 06 21 59 be
       -0.023116125 -0.056292895 -0.046952054 -0.21204004
000390 e3 c0 26 be 7d 51 1d be 1c a4 57 3d d2 40 26 bc
       -0.16284518 -0.15363117 0.05264674 -0.01014729
0003a0 0a 38 22 3d 46 a6 93 be 66 35 8a bd 7b 28 04 be
       0.039604224 -0.28837794 -0.06748466 -0.12906067
0003b0 d9 1a 41 be 55 d3 f3 bd 32 f7 0e be da fc 0f be
       -0.18857898 -0.11905543 -0.13961485 -0.14061299
0003c0 f6 1b 70 3c 4e fd 39 be f8 22 1a 3d db a4 3d be
       0.014655104 -0.18163034 0.037631005 -0.18519919
0003d0 db 74 9c bc 57 e2 3b be 50 0a 34 be 2c 7a e3 3c
       -0.01909869 -0.1834806 -0.17582059 0.027768217
0003e0 0f 5a 0a bc c5 ff 31 be 65 24 ba 3d 68 fc 54 be
       -0.008444323 -0.17382725 0.09088973 -0.2079941
0003f0 17 d0 06 3e 82 63 18 3a cf 38 50 be 53 27 c4 3d
       0.13165317 0.00058131677 -0.20334171 0.09577813

layer_one.a f4 [8, 16, 1]
000000 3d 54 1f 3e d9 66 9a be 8c c9 60 3d 6c a3 8d 3d
       0.15559478 -0.30156592 0.05487971 0.06915936
000010 d5 67 0f 3f 72 2f 45 3e c2 7b 9d 3e 6f 0c ca bd
       0.5601781 0.1925638 0.30758482 -0.09865653
000020 a7 4c 22 be 41 5b b9 be 36 ed 56 bf b8 59 74 3e
       -0.15849553 -0.36202434 -0.83955705 0.2386235
000030 ba 4c 71 3f 4a c5 5e 3e 0a 79 f6 be 6d 6c b5 be
       0.942577 0.21754947 -0.4813922 -0.35434285
000040 9e e2 7c 3e dc 14 c4 3e 96 74 8e 3d e2 87 82 3d
       0.24695823 0.38297164 0.06955831 0.06373574
000050 6d 88 ad 3e d2 57 23 3e db 4b eb 3c d5 cc e4 bd
       0.33893147 0.1595147 0.028722694 -0.11171881
000060 aa e1 39 3f 5b 85 81 bc e4 86 82 be f2 24 30 bf
       0.7260996 -0.01581066 -0.25493538 -0.68806374
000070 fb ba 62 3f 1e 3f 58 3e e4 e6 2a bf c8 c2 00 bf
       0.8856656 0.21117827 -0.6675856 -0.5029721
000080 46 d4 5a 3a 79 fb 95 3e dd 31 2d 3e 93 c8 80 3e
       0.0008347671 0.2929342 0.16913553 0.25153026
000090 e2 f6 fe 3e 6c 95 75 3e f7 68 87 3d ca 1e 8a bd
       0.49797732 0.23982781 0.06611817 -0.06744154
0000a0 ba 25 1a bf fb 7b ea 3d cd d4 3f bf 2c a0 ba 3d
       -0.60213816 0.11449429 -0.74934083 0.091125816
0000b0 93 08 5f 3f 85 73 a2 3e 54 a8 60 be d4 e3 d5 be
       0.8712246 0.3172876 -0.21939212 -0.41775382
0000c0 4b 38 e9 3d be 8a e0 3e 5d 97 fc be 1d a0 5a bc
       0.1138769 0.43855852 -0.4933423 -0.013343838
0000d0 e7 d9 ef bd aa b2 56 3d e8 1e c3 be 59 2a 9b 3d
       -0.117114834 0.05241648 -0.38109517 0.075764365
0000e0 61 9f 54 3f 76 46 d3 3e 38 4c 79 bf 38 33 be be
       0.8305569 0.41264695 -0.97381926 -0.37148452
0000f0 b9 97 3a 3e 93 a2 be be 42 da 2d bf 26 e8 2e bf
       0.1822194 -0.3723341 -0.6791116 -0.6832298
000100 7f 2b ee 3e 97 18 02 3f c9 14 e1 3d 12 41 80 be
       0.4651756 0.5081877 0.109902926 -0.25049645
000110 45 20 e0 bd 78 aa 13 bd 81 7f 21 bf 36 f0 82 3d
       -0.10943655 -0.036051244 -0.6308518 0.06393473
000120 0d b2 04 3b 1d 87 84 3e 04 c1 48 bf ca 3e 31 be
       0.0020247728 0.25884333 -0.7841952 -0.17309108
000130 22 e2 7b be 35 81 bf be a1 c3 85 bf bd 10 76 bf
       -0.24597982 -0.37403265 -1.0450326 -0.9611929
000140 17 7d 84 bc 4d 6c 1c 3e 06 de 1a bd 2a 7c 7b be
       -0.016172929 0.15275688 -0.037809394 -0.24559084
000150 c7 11 2f be 17 59 89 3e 97 05 ab be b9 a6 90 bd
       -0.17096625 0.26825783 -0.33402702 -0.0706305
000160 24 08 e2 be f0 80 d0 3e 07 09 2f bf 2e 07 34 bf
       -0.44146836 0.40723372 -0.6837315 -0.70323455
000170 7e e4 c0 be 74 05 06 3f 4b a3 42 be a2 a6 82 bf
       -0.37674326 0.5235207 -0.19007604 -1.0207102
000180 24 d3 0a 3e 86 7b 4c 3e 33 2a 05 bf 37 3c 94 bd
       0.13557106 0.19968995 -0.52017516 -0.072380476
000190 d4 dd 82 3e cb 88 18 3d 67 75 20 3e 43 af 8b 3d
       0.25559866 0.03723983 0.15669785 0.06820538
0001a0 97 ea 60 3e 3d d1 08 bf 48 ed 2a bf 7c 46 8b bf
       0.21964489 -0.5344427 -0.6676831 -1.0880885
0001b0 86 da bc 3e a6 41 dd bc 72 e4 ef be a8 87 0f bf
       0.3688547 -0.027008843 -0.46853977 -0.5606637
0001c0 86 94 0b 3f 39 d9 38 3e 89 16 71 3e 22 ad be 3d
       0.54523504 0.18051614 0.23543753 0.09310366
0001d0 b6 57 92 bc e9 41 19 be 66 b2 01 bf 1b 0f 91 bd
       -0.01786409 -0.14966549 -0.5066284 -0.07082959
0001e0 9a 45 12 3f 66 73 3f 3f 53 e3 72 3d 02 86 2f bf
       0.57137454 0.7478546 0.059298825 -0.68563855
0001f0 8a e4 eb 3e ab 23 21 bc f1 cf 48 bf 9e 1b f1 be
       0.460728 -0.009835164 -0.78442293 -0.47091383

layer_two.W f4 [8, 7]
000000 87 b1 96 bf 22 2f 4b bf 10 73 da 3f ad 10 8a bf
       -1.1772927 -0.79368794 1.7066364 -1.0786339
000010 f3 99 32 bf 3c 54 14 3f da 65 85 3f c3 84 ab 3f
       -0.6976616 0.5794103 1.0421708 1.3399891
000020 cb 3b 98 bf 72 31 c2 3f 07 04 6d bf c3 52 6a bf
       -1.1893247 1.517134 -0.9258427 -0.91532534
000030 7b 0b 9c 3e 20 62 3f be 85 57 67 3f f0 c2 8c 3e
       0.3047751 -0.18689775 0.9036792 0.27492476
000040 a0 04 8d bf 86 35 ad bf c5 1c 08 bf 45 17 e5 3e
       -1.1017036 -1.3531959 -0.531689 0.44744316
000050 e8 97 4a 3f 93 b2 45 3e bf a7 22 3f 98 95 43 bf
       0.7913804 0.19306402 0.6353721 -0.76400137
000060 21 00 99 3f 26 63 ac bf ae 68 c4 3e 0a d7 26 3f
       1.1953164 -1.3467758 0.38361114 0.65171874
000070 e7 cc bd bf 7a ba 83 3f 19 05 3b 3f d2 8b a9 3f
       -1.4828156 1.0291283 0.73054653 1.3245795
000080 52 33 da bf 45 c1 96 bf ea 79 78 bf c6 c9 b3 bf
       -1.7046912 -1.1777731 -0.97061026 -1.4045951
000090 74 8b 09 3f d5 63 ad 3f ca 4d b2 bf 1c 62 8e bf
       0.53728414 1.3546091 -1.3929989 -1.1123691
0000a0 df 0b 2d 3f 66 99 a1 3d 84 b9 c1 3d 7e a1 3e 3f
       0.6759624 0.078905866 0.094592124 0.7446517
0000b0 19 40 60 bf 86 aa a4 3f 19 a1 20 bf fb ce 0b 3f
       -0.87597805 1.286454 -0.62745816 0.546127
0000c0 09 c3 1b 3e 96 09 b2 3f 3d 63 39 3f 2c 3e d7 bf
       0.15211119 1.3909175 0.7241705 -1.6815848
0000d0 80 86 1c 3f 1d 83 37 3f 79 14 0b 3f b1 91 8c 3d
       0.6114273 0.7168444 0.54328114 0.06863726

layer_two.a f4 [1, 14, 1]
000000 3c da f3 bd 1f 8f 5d be 33 c9 8c 3e 26 b0 92 be
       -0.11906859 -0.21636628 0.27497253 -0.28650016
000010 6b f5 88 3e 42 80 0b bd 64 0c ae bc 0c 72 8f 3e
       0.2674974 -0.034057863 -0.021246143 0.28016698
000020 d8 43 2a be d2 fa 38 3f cf 74 19 3e c5 32 55 3f
       -0.16627443 0.7225772 0.14985965 0.83280593
000030 4b 78 ef be cf 08 b3 be
       -0.46771464 -0.34967658
