models/model_epoch_400.safetensors (safetensors, 367960 bytes, 4 tensors)

layer_one.W f4 [1433, 64]
000000 a5 bc a1 be a3 1e 52 3d be 80 8a 3e 19 e3 0f 3e
       -0.31589237 0.05129875 0.27051347 0.14051475
000010 31 39 5f bb 0c 16 c5 be 14 e9 33 3d ae 3f bf 3e
       -0.0034061188 -0.38493383 0.043923452 0.3735327
000020 3c e7 22 bf d2 85 ed 3d 3c 20 88 3d 6d dc 50 3e
       -0.63634086 0.1159779 0.06646773 0.20396586
000030 e6 6b b4 bd f7 05 0a be 9d c4 73 3d 3d 2b 90 3e
       -0.088096425 -0.13478838 0.059513677 0.28157988
000040 8d d1 94 be 0d 67 54 3e bf 69 96 3e a1 7d 1d 3d
       -0.29066125 0.20742436 0.29377553 0.038449887
000050 a6 4f 34 3e 8c 46 be be 5c e9 d2 bd b8 00 c4 3e
       0.17608508 -0.37163198 -0.10298416 0.38281798
000060 dc 90 29 bf e9 fc a9 3e 51 1a cc 3e 4b 47 ed bd
       -0.6623666 0.33200768 0.39863828 -0.11585864
000070 87 a1 8f bd 6a 63 a6 be 71 5e 89 bd b2 e2 13 3f
       -0.07013231 -0.32497722 -0.067074664 0.57767785
000080 2d 3d ea be 1b 34 16 3e 1b 39 b4 3d 3c 3c c4 3e
       -0.45749798 0.14668314 0.087999545 0.38327205
000090 46 a8 b1 bd c8 7c 1f be ea 6c 35 3e 5e f8 9d 3e
       -0.08674674 -0.15574944 0.17717329 0.30853552
0000a0 50 18 00 bf 1a 2a e3 3d 48 1d 69 be ec 23 9f 3d
       -0.500371 0.110920146 -0.22765076 0.077705234
0000b0 78 06 d0 3c 28 9f ba be 11 14 e8 bc 68 35 a8 3e
       0.02539371 -0.36449552 -0.02832988 0.32853246
0000c0 92 f8 03 bf 0a ad 00 3e 47 61 93 3d 24 bf 82 3d
       -0.51551163 0.12566009 0.071962886 0.063841134
0000d0 e6 41 a7 3d 43 b3 4b be 7f 41 de 3d 91 79 78 3e
       0.08166866 -0.19892602 0.10852336 0.24265124
0000e0 86 1c bc be a4 b9 9d 3e 1b 61 c0 3e 36 df 72 3d
       -0.36740512 0.30805695 0.37574086 0.0592949
0000f0 70 2c 01 3e 75 2a 2e be 37 2e 84 bd cb f9 9c 3e
       0.12614608 -0.17008384 -0.06454127 0.30659327
000100 7d 50 8d be be 53 8d be a4 a4 97 bd 59 8b 42 be
       -0.2760047 -0.27602953 -0.074044496 -0.1899847
000110 a6 3e b5 bd 6e 06 8f bd 25 fe 8d be a2 b0 e5 3d
       -0.0884984 -0.06983648 -0.2773296 0.11215331
000120 a1 e9 31 be ad 69 c3 be 15 9e b7 bd 09 7f d0 be
       -0.17374279 -0.38166562 -0.08965699 -0.4072192
000130 59 53 76 be 00 52 2b bd 2b 87 5f bd 16 eb 83 3d
       -0.24055232 -0.04182625 -0.054572266 0.064413235
000140 9c 36 d1 bd ca eb 81 be 66 21 cb 3d 5a 96 02 bf
       -0.10215494 -0.25375205 0.099184796 -0.5101067
000150 da 9f 32 be a2 f1 48 bd f4 c3 91 be c9 5b a1 3e
       -0.17443791 -0.049058564 -0.28469813 0.3151534
000160 9f 24 c9 bd 70 60 54 be b0 df 75 be 76 c3 cc be
       -0.09821438 -0.20739913 -0.24011111 -0.39992875
000170 85 89 f0 be 0a 57 c3 3c f2 bc 9e be 48 ac 03 bd
       -0.4697992 0.023845214 -0.3100353 -0.032146722
000180 6b a0 d1 bd 99 01 df bd 0d 66 9b bd a0 37 cd be
       -0.102356754 -0.108889766 -0.07587824 -0.400815
000190 3c 43 8e be 23 9e e7 3c aa 46 c2 be 61 02 a7 3d
       -0.2778567 0.028273648 -0.37944537 0.081547506
0001a0 e8 1a 8e be 13 b6 95 be 58 ef c1 bd e1 c0 04 bf
       -0.27754903 -0.29240474 -0.09469479 -0.5185681
0001b0 99 dc 76 be 46 96 ce bc 11 6d b3 be d8 b8 3f 3e
       -0.24107589 -0.02521814 -0.3504415 0.18722856
0001c0 96 59 39 be 18 82 4a be 15 0a 97 bd 9a d6 02 bf
       -0.1810058 -0.1977619 -0.0737497 -0.51108706
0001d0 a0 3b 20 be 47 db 8d bd 2f 5b d8 be fe ad 12 3e
       -0.15647745 -0.069265895 -0.42257068 0.14324185
0001e0 34 ee 58 3d be 92 31 3d 62 04 dd 3d 2a eb be be
       0.052961543 0.043352835 0.107918516 -0.3728879
0001f0 24 26 4b be 23 37 e8 bd bb f7 bf be f1 1a 93 3d
       -0.19838768 -0.113386415 -0.3749369 0.07182873
000200 a2 da f1 bd 5b 7f 5a 3e b3 20 98 3d c5 28 25 3e
       -0.11809279 0.21337645 0.07428112 0.16128834
000210 74 75 90 3d 77 dc 6b be 11 9b 23 be 46 a5 4c 3d
       0.070536524 -0.2303332 -0.15977122 0.049962305
000220 f3 50 ee 3c 0c 1d b9 3e d2 a6 bd 3d e2 61 76 be
       0.029091334 0.36154974 0.09260334 -0.24060777
000230 38 d3 80 be c1 c8 06 be 17 8c e3 bd e4 34 50 3e
       -0.25161147 -0.13162519 -0.111107044 0.20332676
000240 89 e9 13 3e d6 20 04 3e cd c4 98 3e c7 23 4d 3e
       0.14444555 0.12903151 0.29837647 0.20033179
000250 88 5d 24 be 80 e5 77 be fa bb 3f be 1b ae aa 3d
       -0.16051304 -0.24208641 -0.18724051 0.08333989
000260 bb 27 9e be 37 60 1e 3e fb 19 3f 3e 9c 29 d0 3d
       -0.30889687 0.1546639 0.18662255 0.10164186
000270 35 30 15 be 28 ea f7 bd 05 9a 6c 3d 7e 0a 6d 3e
       -0.14569171 -0.12105209 0.057764072 0.23148534
000280 9c 14 56 be f8 d3 97 3e 58 44 28 3e a0 ad 97 3d
       -0.209063 0.29653907 0.16432321 0.07406163
000290 d7 93 99 3d c6 00 cf be 78 cd 58 be a6 0b 3c 3d
       0.07498901 -0.40430278 -0.2117213 0.045909546
0002a0 5a 0a b1 3b 83 5c c9 3d a1 71 b3 3e 82 2d 02 be
       0.0054028453 0.09832098 0.3504763 -0.12712672
0002b0 e9 ee 3b be 41 34 f2 bd 5f 4c 76 3e af 93 f0 3d
       -0.18352856 -0.11826373 0.24052571 0.117469184
0002c0 42 e3 af 3c 05 93 ed 3d ce 6f e0 3e ff 81 24 3c
       0.02147067 0.116003074 0.438353 0.010040759
0002d0 72 b3 4e be e4 42 39 3d 1e cf 3a 3e 97 d8 4f 3e
       -0.2018564 0.045229807 0.18243071 0.20297466
0002e0 ed 1c ca 3c 43 a1 8c 3e d4 56 6e 3e c9 ca ae 3d
       0.024671996 0.27466783 0.2327531 0.08534772
0002f0 e8 b0 2a bd 97 7f 8f be 99 7f c5 bd 3a 5f 45 3e
       -0.041672617 -0.2802703 -0.09643478 0.19274607
000300 c5 b3 b8 bd c8 56 53 3d 73 12 3c bd 00 4b d3 bd
       -0.09018663 0.051596433 -0.045916032 -0.103170395
000310 bc 0a 5a be 8d 68 31 be 33 7a d7 bb 9f 12 22 be
       -0.21293157 -0.17325039 -0.0065758466 -0.15827416
000320 cf 14 ee bd bc 8b 8e be cf 7b 6b bd 86 ee 94 bd
       -0.11625063 -0.27840984 -0.05749112 -0.07272057
000330 1c 1e 01 be f2 cf 94 3a 8e 17 05 be 67 a6 99 3c
       -0.12609142 0.0011353476 -0.12997267 0.018756105
000340 31 3e ba 3d 53 94 4b be b2 d2 99 bc 07 87 ac 3d
       0.09093893 -0.198808 -0.018777225 0.08424192
000350 f2 d4 8e be 9b 32 4a be 5f ef 68 be f7 1b 47 3d
       -0.2789684 -0.19745867 -0.22747563 0.048610654
000360 a5 c2 03 be 4d 8b 4e be 4f be b4 3d 02 c8 42 be
       -0.1286722 -0.20170327 0.08825361 -0.1902161
000370 24 53 96 bc 58 3d 11 3e 19 4d 14 be b3 6a 17 be
       -0.018350191 0.14183557 -0.14482535 -0.14786796
000380 8c 3c 51 3c 68 7c c7 3c 5e dd 13 bd c3 b3 8d be
       0.012770783 0.024351314 -0.036099784 -0.2767621
000390 7e c6 6e be 28 30 22 bd 6c d1 c1 3d 1b d6 aa bd
       -0.23317906 -0.039596707 0.09463772 -0.083416186
0003a0 9a ec 05 bd b7 74 4d be 2a 9f 80 3d 52 79 2f be
       -0.032696344 -0.20064054 0.06280358 -0.17136124
0003b0 7a b1 91 be 95 be db bd 7c 65 59 be 43 e4 65 be
       -0.28455716 -0.1072971 -0.2123012 -0.22450356
0003c0 c4 b3 c3 3d d2 3a 3c be 4d 4b 06 bd 72 cd 8a be
       0.09555772 -0.18381813 -0.032786656 -0.27109867
0003d0 db 29 df bd d4 f6 67 be df e4 87 be fa 2a a5 bd
       -0.10896655 -0.22652751 -0.26541802 -0.08064838
0003e0 3f 7f bc 3d 7e 54 47 be bd 08 16 3e ed 79 75 be
       0.09203958 -0.19465825 0.14651771 -0.23972292
0003f0 45 73 b4 3d 30 ab 9e bb aa 76 64 be 37 c8 39 3d
       0.088110484 -0.0048421845 -0.22310892 0.045356955

layer_one.a f4 [8, 16, 1]
000000 f2 54 62 3d 3a d8 1e be 30 6a a9 bd 5a 03 91 3d
       0.05525679 -0.15512171 -0.08272207 0.070807174
000010 bb a7 3e 3f a5 ab 61 3e f0 33 8f 3e 2f 4e 07 be
       0.74474686 0.22038133 0.27969313 -0.13213418
000020 06 3b 4d be fa 81 ee be 7c 47 74 bf 5b a2 ad 3e
       -0.20042047 -0.4658354 -0.95421576 0.3391293
000030 e7 bb 7a 3f 8b f4 ab 3e a2 a6 93 be ac cd 8b be
       0.97942966 0.3358501 -0.28838068 -0.27305353
000040 b4 5e b7 3e 67 00 20 3e 4b 17 b5 bd 8c dc 04 be
       0.3581444 0.15625153 -0.088423334 -0.12974757
000050 5e 16 4f 3e 8f 13 36 3c 44 f2 60 be cb 2d 60 be
       0.20223376 0.011113062 -0.21967417 -0.21892469
000060 e4 3d 16 3f 87 0b 19 be dc 57 03 be 7f ea 2f bf
       0.5868819 -0.14945804 -0.12826484 -0.6871719
000070 0b 0e 71 3f e3 d1 f2 3d 27 37 07 bf 4e 8c ea be
       0.9416205 0.11856439 -0.5281853 -0.4581017
000080 ab d7 45 bc c8 62 84 3e e4 f7 a5 bc 46 e6 cd 3d
       -0.012075345 0.25856614 -0.020259805 0.10053687
000090 fb 79 1f 3f 5f be a5 3e b3 fe 84 3d 1a 50 3b be
       0.622955 0.32371804 0.064938925 -0.18292275
0000a0 60 7e 58 bf 52 ba 2a bc 09 b3 4d bf 5d 37 84 3e
       -0.8456783 -0.010420399 -0.8035131 0.2582349
0000b0 14 8e 96 3f 29 fa e5 3e dc b0 79 be 16 7e ec be
       1.1762109 0.4491742 -0.24383873 -0.46189946
0000c0 44 cb 85 3e e2 52 d1 3e 7a d1 b5 be fa 11 83 be
       0.26131642 0.40883547 -0.3551138 -0.25599653
0000d0 78 b3 94 be 58 14 df 3d 40 2d d4 be 80 ef 20 be
       -0.29043174 0.10892552 -0.41440773 -0.15716362
0000e0 42 be 60 3f 9e d3 ca 3e dc 62 49 bf 9d 0e cf be
       0.8779031 0.39614576 -0.7866647 -0.40440837
0000f0 96 21 89 3c cc 12 d0 be 63 27 40 bf 22 81 24 bf
       0.016739648 -0.4063934 -0.750601 -0.6425954
000100 57 9e 18 3f 90 a2 b5 3e d7 1d ce bd ed 09 95 be
       0.5961661 0.35475588 -0.10064285 -0.29109135
000110 2e 7e 37 3d 3b a4 7e bd 6e 0d 0e bf 60 b6 3b 3d
       0.04479807 -0.06216834 -0.5548924 0.045828223
000120 a8 00 96 3d 3e 9b 60 3e f7 24 51 bf 73 a7 42 be
       0.07324344 0.2193422 -0.8169703 -0.1900919
000130 1d e6 86 be 55 c6 a6 be fa 0d 79 bf f4 0f 4b bf
       -0.26347438 -0.3257319 -0.9728695 -0.7932122
000140 0d b8 b9 3d 90 23 21 3e a1 c5 96 be e1 2a be be
       0.09068308 0.15736222 -0.29447654 -0.3714209
000150 78 52 75 be 2b 40 93 3e cd a6 b8 be 5c 63 90 bc
       -0.2395724 0.28759894 -0.3606476 -0.017625503
000160 e4 65 1f bf 7b c6 c1 3e 10 d9 1a bf b0 66 3c bf
       -0.6226485 0.3784674 -0.6048746 -0.7359419
000170 50 5d de be a7 76 20 3f e7 5b 5c be 77 61 74 bf
       -0.43430567 0.6268105 -0.21519433 -0.9546122
000180 df ca 7a 3e 75 1a a8 bc f8 29 25 bf a5 a0 8c be
       0.24491452 -0.020520428 -0.64517164 -0.27466312
000190 1f 54 b0 3d d6 51 36 3d d9 59 f1 bd 0a 57 20 be
       0.08609795 0.04451164 -0.11784715 -0.15658203
0001a0 0d e7 b5 3e 43 9b 51 bf 7e d9 19 bf a3 68 9a bf
       0.3552784 -0.81877536 -0.6009749 -1.2063183
0001b0 9b 06 90 3e 0b fc be bd f3 62 96 be d3 67 07 bf
       0.2813004 -0.09325417 -0.29372367 -0.528928
0001c0 bf 10 01 3f e7 43 55 3e 49 21 aa 3d 11 86 0c be
       0.5041618 0.20826684 0.0830713 -0.13723017
0001d0 0b 87 a9 be 94 68 94 bc b7 e7 24 bf 7f 72 68 be
       -0.33110842 -0.018116273 -0.6441607 -0.22699927
0001e0 ae 7e fe 3e 80 34 2a 3f f6 db 71 3e a7 eb 40 bf
       0.49706024 0.6648636 0.23619065 -0.75359577
0001f0 f0 6a 90 3e 7f d3 20 be a8 40 5f bf 61 e7 0f bf
       0.28206587 -0.1570568 -0.8720803 -0.5621243

layer_two.W f4 [8, 7]
000000 ff 7b b8 bf 3d 21 d1 bf 45 61 0b 40 76 22 b5 bf
       -1.4412841 -1.6338269 2.1778119 -1.4151142
000010 ab 1d 62 bf 32 56 21 3f 6d 95 bf 3f da 43 06 40
       -0.8832652 0.6302215 1.4967476 2.0978913
000020 ec a5 04 c0 65 c6 fa 3f 73 63 92 bf 29 82 af bf
       -2.072627 1.9591795 -1.14366 -1.3711597
000030 a1 39 8f 3e 3d 13 c2 be bc f3 ce 3f aa 52 9e 3f
       0.27973655 -0.37905303 1.6168132 1.2368977
000040 80 cd b5 bf 04 35 fe bf 3f 21 19 bf 47 c1 4b 3f
       -1.4203339 -1.9859929 -0.59816355 0.7959179
000050 29 7a ca 3f d1 b6 fa 3e e6 d4 05 3f 0c 7b 81 bf
       1.581853 0.48967603 0.5227798 -1.0115676
000060 95 58 00 40 47 6b e4 bf 2a b8 f0 3e f0 fa af 3f
       2.0054066 -1.7845238 0.47015506 1.3748455
000070 77 95 d7 bf 68 23 b1 3f a9 ab 8d 3f 79 51 ee 3f
       -1.6842488 1.383893 1.1068012 1.8618613
000080 85 99 01 c0 a8 ee cf bf d0 f0 b9 bf 4a 7c dc bf
       -2.024995 -1.6244707 -1.4526615 -1.722543
000090 8c e1 d2 3f 01 30 ed 3f 2d 26 03 c0 65 3f a2 bf
       1.6475081 1.8530275 -2.049205 -1.2675596
0000a0 bc 02 4f 3f 4d a2 92 be 8a b0 01 3d 88 e3 50 3f
       0.8086355 -0.2863945 0.0316625 0.81597185
0000b0 91 7a a8 bf cc 46 0d 40 54 36 8b bf 57 36 65 3f
       -1.3162404 2.207446 -1.0875955 0.8953604
0000c0 3e b6 93 3e 30 2b fa 3f df 8d 92 3f d4 42 06 c0
       0.28849977 1.954443 1.1449546 -2.0978289
0000d0 66 94 fb 3e f7 4c 6a 3f 24 75 3f 3f 73 e7 21 3d
       0.49136657 0.9152369 0.7478812 0.039527368

layer_two.a f4 [1, 14, 1]
000000 f2 4b f2 3b f9 bd 58 bd 4f 31 e1 3d 92 13 32 be
       0.0073943073 -0.052915547 0.10995733 -0.17390278
000010 32 66 fe 3d 30 3b 9b bd 4f f5 f8 bd 19 cf 83 3e
       0.12421836 -0.075796485 -0.12156164 0.2574394
000020 ab 74 84 3e 92 be e2 3e f2 78 95 3e 15 90 fc 3e
       0.2587026 0.4428602 0.29193836 0.49328676
000030 03 37 cc 3d fb 21 17 3e
       0.0997143 0.14759056
