models/model_epoch_700.safetensors (safetensors, 367960 bytes, 4 tensors)

layer_one.W f4 [1433, 64]
000000 d7 c9 c6 be 92 98 1f 3e e6 af 9b 3e 58 37 2d 3e
       -0.38825867 0.15585545 0.30407637 0.16915643
000010 65 55 13 3e cc 90 d7 be 6b d9 ce 3d 8d a3 00 3f
       0.14388044 -0.4210266 0.10100063 0.5024956
000020 88 62 4f bf f4 fe 22 3e ca d0 11 3e d7 24 8c 3e
       -0.8100972 0.1591757 0.14239803 0.27371857
000030 2f 14 06 be 48 64 23 be f3 81 35 3e 17 6a d1 3e
       -0.13093637 -0.15956223 0.17725353 0.40901253
000040 05 0a e1 be 26 f3 8e 3e 38 2c a5 3e 9b 13 0f 3e
       -0.43952957 0.27919883 0.322603 0.13972323
000050 e3 e9 19 3e db fd e7 be 00 6c 88 3d a1 35 bd 3e
       0.15030627 -0.45310864 0.06661224 0.36954978
000060 c2 1f 3a bf fb a4 fd 3e 34 3f 90 3e e5 15 2c be
       -0.7270471 0.49539933 0.2817322 -0.16805227
000070 c9 c2 46 be d3 63 06 bf 2a fb d9 bb 13 64 15 3f
       -0.19410242 -0.5249607 -0.0066522555 0.58355826
000080 65 e2 20 bf 92 90 33 3e 1a 63 4b 3e 0f 59 af 3e
       -0.6284545 0.17535618 0.19862023 0.34247634
000090 b9 80 e6 3c 00 1a 19 be 8c 6c 56 3e 34 c1 ce 3e
       0.028137552 -0.14951324 0.20939845 0.40381777
0000a0 d4 4a 14 bf d6 c7 0d 3e ad b3 76 be aa 00 f6 3d
       -0.5792668 0.13845763 -0.24091978 0.120118454
0000b0 28 2e ad bd 50 b3 cd be 3d ef 92 3c 9b 6f a5 3e
       -0.08456069 -0.40175867 0.017936343 0.3231171
0000c0 8e 34 14 bf 18 fd 8f 3e 22 a3 9f 3d 15 f1 5b 3e
       -0.5789269 0.28122783 0.07794787 0.21478684
0000d0 d2 22 1b 3d 5b a1 87 be e6 49 ef 3d 05 ef c8 3e
       0.037875004 -0.26490292 0.11684017 0.39244857
0000e0 5f a5 c9 be c8 fe 81 3e 11 a9 ac 3e 94 35 65 3e
       -0.3938398 0.25389695 0.33722737 0.2238372
0000f0 cb ed 27 3e f4 2e 83 be 29 4a 1a 3e 80 d0 06 3f
       0.16399305 -0.2562176 0.15067352 0.52661896
000100 b2 85 ba be 94 f4 a1 be 8c 12 07 be c8 bf 9c be
       -0.36430126 -0.3163191 -0.13190669 -0.30615067
000110 75 93 fb bd ad 9d 54 bd c0 42 6f be db df 3e 3e
       -0.122839846 -0.051908184 -0.23365307 0.18640082
000120 09 79 1f be ce d1 f9 be ae 4b 63 be a4 66 0f bf
       -0.15573515 -0.4879288 -0.22196838 -0.5601599
000130 06 3a 98 be 6f 28 32 be d1 6c 00 be 6f 38 e3 3d
       -0.29731768 -0.17398237 -0.1254151 0.11094748
000140 3e 80 e4 bd 8e 27 bf be 71 f0 1a 3b e0 5b 3a bf
       -0.11157273 -0.37334865 0.002364185 -0.7279644
000150 02 ef 9c be 38 52 3d bc 10 57 02 bf 69 f1 ca 3e
       -0.30651098 -0.011555247 -0.50914097 0.39637306
000160 af 96 75 be ca bb cf be 3b 87 ae be 7c d8 09 bf
       -0.23983262 -0.4057296 -0.34087548 -0.53845954
000170 ed 31 05 bf 99 bc 15 bd c2 ac ea be 5e a5 8b 3d
       -0.52029306 -0.036556814 -0.4583493 0.06818651
000180 54 8b c6 bd eb f6 97 be 8f 7a 09 bd 99 2a 04 bf
       -0.096945435 -0.2968057 -0.033564147 -0.516275
000190 f7 9b c0 be 82 01 08 3c 57 90 be be dd ea d3 3d
       -0.37618992 0.008301141 -0.37219498 0.10347531
0001a0 60 73 8f be 0f 23 0e bf 1f 03 09 be c1 21 17 bf
       -0.28017712 -0.55522245 -0.13380097 -0.5903588
0001b0 7a 32 ce be cf a1 6c bc 31 66 9e be 32 56 92 3e
       -0.40272886 -0.014442875 -0.3093734 0.28581387
0001c0 8f b4 b5 be 2d e3 ad be c3 78 df bd c0 b7 0a bf
       -0.35489318 -0.33962384 -0.10911705 -0.5418663
0001d0 15 17 16 be 4b ff 28 be 51 a2 ea be 8b 85 69 3e
       -0.14657243 -0.16503637 -0.45826963 0.22804849
0001e0 f2 3c 29 bd 98 54 ec bd 22 23 c7 3c 59 99 f8 be
       -0.041317888 -0.115395725 0.024308745 -0.48554495
0001f0 2d 36 1d be 76 7b 08 3c ed 7b ca be 26 be 84 3e
       -0.15352698 0.008330217 -0.39547673 0.25926322
000200 44 31 27 bd 0c 30 5e 3e 47 be 8a 3e b7 01 41 3e
       -0.040818468 0.21698016 0.27098295 0.1884831
000210 73 07 3e bc b8 16 fd bd 20 d8 30 bd 22 61 5b 3e
       -0.011598456 -0.12357849 -0.043174863 0.21423772
000220 3d 1e db 3d c6 82 e2 3e 2a c8 ea 3d 37 58 4b be
       0.10699127 0.44240397 0.114639595 -0.1985787
000230 07 89 f7 be f6 52 d4 bd 57 67 a2 bd 8a 54 0c 3e
       -0.4834673 -0.10367386 -0.07929867 0.13704124
000240 4a 36 57 3e a0 64 73 3e 01 ac ed 3e 58 bd 95 3e
       0.21016803 0.23768854 0.4642029 0.2924602
000250 d4 af 86 be 05 f1 bc be d0 0d 80 bd 24 53 a2 3d
       -0.2630602 -0.36902633 -0.062526345 0.07926014
000260 40 1c 5e be aa df 0b 3e 35 d9 82 3e da 4a 0d 3e
       -0.21690464 0.1365954 0.2555634 0.13798085
000270 ba de b6 be a1 0f 0a be f3 e9 58 3d e7 c8 50 3e
       -0.35716802 -0.13482524 0.052957486 0.20389138
000280 d8 aa 6c be 97 d7 b7 3e cd 75 83 3e 93 4a 2e 3e
       -0.23112047 0.3590667 0.25675812 0.17020635
000290 69 b0 7f 3c 4d 55 80 be 2b bc 2f be 12 79 56 3d
       0.015606024 -0.2506508 -0.17161624 0.052361555
0002a0 a4 07 de 3d 80 53 9c 3d 6e 47 d5 3e 55 87 de 3c
       0.10841301 0.07633114 0.4165606 0.02716414
0002b0 31 75 c1 bd 57 7b d9 bd 35 38 a8 3e 5f b2 b2 3d
       -0.094461806 -0.10619228 0.32855383 0.08725428
0002c0 de c4 4e 3d 6c 03 13 3e 0b ef 8f 3e 7b 2b 96 3d
       0.050480716 0.14356774 0.28112063 0.07332512
0002d0 f6 ae b1 bd 8f 78 7d 3e 2d 59 a0 3e 53 76 62 3e
       -0.08675949 0.2475302 0.31318036 0.2211545
0002e0 9f e5 d1 bd 3e 29 be 3e f8 61 9b 3e e3 9f ab 3e
       -0.10248875 0.3714084 0.30348182 0.3352042
0002f0 80 b3 22 bb 2d 59 5b be 50 f9 5f 3d 81 14 ee 3d
       -0.0024826229 -0.21420737 0.054681122 0.116250046
000300 a5 3c 1e be 69 46 ce 3c 96 50 6d bd ca 31 45 be
       -0.15452822 0.025180059 -0.05793818 -0.19257274
000310 f5 2a 93 be 71 ff b1 be 2d cc 16 be 50 85 0c be
       -0.2874371 -0.347652 -0.14726324 -0.1372273
000320 4b 7d 14 bd 4e e0 c2 be c5 d6 9b bd 80 b7 cf bd
       -0.0362523 -0.38061756 -0.076093234 -0.10142422
000330 bf e2 93 be 9b d0 e3 bd fa 00 eb bd f7 2a bd 3d
       -0.2888393 -0.11123773 -0.11474796 0.092367105
000340 10 8f a2 3d f2 71 a1 be 7c a7 c9 bd a5 f1 a4 3b
       0.07937443 -0.31532246 -0.09846398 0.005033689
000350 5b 05 5e be 17 c2 54 be 08 b9 d5 be 2b ba f1 bd
       -0.2168173 -0.20777164 -0.4174273 -0.11803087
000360 51 f0 40 3b 1b ed a8 be 40 34 b3 3d b3 3a 27 be
       0.0029440115 -0.32993397 0.087502 -0.16330986
000370 a6 c5 02 be 6c c2 9f 3d c8 90 2f be 0c 4a 62 bd
       -0.1277071 0.07800755 -0.17145073 -0.055246398
000380 4b 08 91 bd e4 e4 e5 bd 74 d9 e7 3d 80 c6 87 be
       -0.0708166 -0.11225298 0.11320773 -0.2651863
000390 0f 39 9f be 90 37 40 bd ae e9 88 3d b1 79 2c bd
       -0.3109822 -0.04692799 0.06685196 -0.04210824
0003a0 e2 c9 25 3d 96 58 6c be cb c1 8d 3d 26 26 26 be
       0.040475734 -0.23080668 0.06921729 -0.1622549
0003b0 83 e4 c8 be da 22 99 bd 07 10 96 be 40 6f 67 be
       -0.3923684 -0.074773505 -0.29309103 -0.22601032
0003c0 df 1c 81 3e a3 43 51 be 81 ef cb 3d 76 bc a2 be
       0.2521734 -0.20435958 0.09957791 -0.3178441
0003d0 bc a6 8a be 5d 7c b7 be 32 78 ca be 10 e9 d9 bd
       -0.27080333 -0.3583707 -0.39544827 -0.10640156
0003e0 64 12 4d 3e f6 df a4 be 75 dc 1a 3e 40 f0 ab be
       0.20026547 -0.3220212 0.1512316 -0.33581734
0003f0 86 32 b2 bc 63 8e c5 bd 41 20 f8 be 80 57 9c 3d
       -0.021752607 -0.09646299 -0.48462108 0.07633877

layer_one.a f4 [8, 16, 1]
000000 71 c5 78 bd ef 80 18 3d e1 a2 97 be d7 6d 63 bd
       -0.06073517 0.037232336 -0.29616454 -0.055524673
000010 c0 c0 17 3f 76 ea c2 3e a2 b0 a4 3e 6b a5 85 be
       0.5927849 0.38069504 0.3216601 -0.26102766
000020 8d f2 f4 bd 16 cc bd be dd 24 68 bf 3e ac c4 3e
       -0.119603254 -0.37069768 -0.9068125 0.3841266
000030 ca 0f 67 3f d6 5c fc 3e 32 26 94 be d4 6c f6 be
       0.9025847 0.49289578 -0.2893539 -0.48129904
000040 6f bf 57 3e cf 95 fa 3b 7d a3 5d bc 05 76 e0 be
       0.2106912 0.007647253 -0.013527748 -0.43840042
000050 64 1e c4 3d 08 00 b1 3e 44 ef ae be 99 3a 1c be
       0.09576109 0.34570336 -0.3416692 -0.15256728
000060 dd 04 e3 3e 24 f8 c9 be ca 96 8f bc 59 45 31 bf
       0.44339648 -0.3944713 -0.017527957 -0.6924644
000070 2e a2 5a 3f 1a 14 b8 3e 05 cf 0c bf 1f 4b 04 bf
       0.85403717 0.35952836 -0.55003387 -0.51677126
000080 6b 18 70 bd 79 9b 91 3d 92 78 49 be 1c 32 bd bd
       -0.058617037 0.07109732 -0.196749 -0.09238073
000090 c9 8c 36 3f 0f a5 bf 3e 64 ad 7f 3c 61 47 23 be
       0.7130857 0.37430617 0.015605304 -0.15945198
0000a0 b4 97 4e bf 97 eb 15 be 9a 96 0f bf 91 b1 22 3e
       -0.8070023 -0.14640652 -0.56089175 0.15888049
0000b0 51 98 65 3f ec 12 04 3f d3 7d fe be fa 8d 0a bf
       0.8968554 0.5159137 -0.4970537 -0.5412289
0000c0 ae 23 8a 3e 40 ad dc 3e fb b3 b3 be 12 78 0e bf
       0.26980346 0.4310093 -0.35098252 -0.5565196
0000d0 8d 27 7f be 23 d2 36 3c 1e 79 23 bf 86 4d cb be
       -0.24917431 0.011158499 -0.63856685 -0.39707583
0000e0 81 6f 63 3f 14 9b e7 3e cf 0d 24 bf e0 a1 f7 be
       0.88842016 0.45235503 -0.6408357 -0.48365688
0000f0 e3 4d ac bc 54 2e c8 be a5 df 42 bf e6 46 19 bf
       -0.021033233 -0.39097846 -0.76122504 -0.5987381
000100 0c 56 16 3f b8 d0 f5 3e 43 53 96 be a0 42 eb be
       0.5872505 0.48010802 -0.293604 -0.45949268
000110 90 3b 26 be b3 fa 1b be 48 33 49 bf 05 98 08 be
       -0.16233659 -0.15232353 -0.78593874 -0.13339241
000120 1e 1a 60 bc ac 55 c3 3e 44 89 27 bf 37 50 e6 be
       -0.013678102 0.381513 -0.65443826 -0.44983074
000130 dc c2 80 be c0 c7 8d be fc 9f 6f bf 9c db 43 bf
       -0.25148666 -0.2769146 -0.9360349 -0.7650697
000140 bc 7b 2f 3e 87 fb f6 3d 06 cb b3 be 1a 97 4b bf
       0.17137045 0.12059694 -0.35115832 -0.7952744
000150 51 50 29 be 4c 19 a6 3e 3c ef 21 bf 39 9f d7 bc
       -0.16534545 0.32441175 -0.6325567 -0.02632104
000160 a2 0a 1a bf 56 77 96 3e 76 53 20 bf 5d 9e 4e bf
       -0.60172474 0.2938792 -0.6262735 -0.80710393
000170 9a e9 d5 be dc 2c 24 3f dc bd d4 be da f4 69 bf
       -0.41779786 0.6413095 -0.415511 -0.9138924
000180 d4 12 23 3e b0 50 da bd 64 65 55 bf b2 ba c6 be
       0.15925151 -0.10659921 -0.83357835 -0.38814312
000190 c5 76 25 3e d3 bb 7f 3e 65 ba 78 be 55 84 29 be
       0.16158588 0.24973993 -0.24289854 -0.16554387
0001a0 9a ea cc 3e d4 80 33 bf 14 cd 28 bf e5 41 97 bf
       0.40022737 -0.7011845 -0.65937924 -1.1816984
0001b0 c0 c5 d0 3e 2b 25 29 3d 73 83 63 be 0d 3f 21 bf
       0.4077587 0.04129521 -0.22218113 -0.6298683
0001c0 4d 9c f3 3e 0c 77 8f 3e fc 4b fc bd 3c 7e 7f be
       0.47580186 0.28020513 -0.1231918 -0.24950498
0001d0 da a2 91 be 36 77 77 bd 3f 7a 4f bf ea 17 82 be
       -0.28444558 -0.060416423 -0.8104591 -0.2540887
0001e0 34 58 08 3f ff 69 15 3f 58 a6 f9 3e d5 23 63 bf
       0.5325959 0.5836486 0.48759723 -0.8872655
0001f0 7c 0d c2 3e 85 e1 49 bd 74 d0 69 bf 0a 52 ed be
       0.37900913 -0.049287338 -0.913337 -0.46351653

layer_two.W f4 [8, 7]
000000 bd 86 dc bf 35 45 10 c0 a7 7f 31 40 7f 2c da bf
       -1.7228619 -2.254224 2.7734163 -1.7044829
000010 06 2f b6 bf 3b ed 28 3f 48 bd 0d 40 d9 19 2c 40
       -1.42331 0.65986985 2.2146778 2.6890776
000020 98 e7 29 c0 b3 e3 2b 40 0c f0 96 bf 5f 82 03 c0
       -2.6547604 2.6857727 -1.1792006 -2.0548322
000030 69 66 9b 3e f8 fe 64 bf 54 38 17 40 08 36 09 40
       0.3035157 -0.8945155 2.362813 2.1439228
000040 78 6b 00 c0 e5 f4 1b c0 68 68 3e bf 6e 97 a5 3f
       -2.0065594 -2.4368222 -0.7437806 1.2936838
000050 73 83 1b 40 bf 86 40 3f c3 08 62 3d 0c 1f c5 bf
       2.429898 0.75205606 0.055184137 -1.54001
000060 0f 5c 2e 40 aa 04 18 c0 6e cc 33 3f 85 10 17 40
       2.7243688 -2.3752847 0.7023381 2.3603833
000070 15 be da bf e0 ed a6 3f d1 d6 cd 3f 55 51 14 40
       -1.7089258 1.3041344 1.6081182 2.317464
000080 40 71 1f c0 04 a3 18 c0 be 71 fb bf ee 71 04 c0
       -2.4912872 -2.3849497 -1.9644086 -2.0694537
000090 4c 5b 14 40 40 a2 18 40 21 07 31 c0 a2 bb d8 bf
       2.3180723 2.384903 -2.76606 -1.6932261
0000a0 58 93 66 3f cf c0 5a bf 22 93 af 3d de 9a 30 3f
       0.9006858 -0.8545045 0.08572985 0.6898631
0000b0 b9 ac f6 bf a1 fe 48 40 c8 f7 d0 bf 7f 48 ef 3f
       -1.9271461 3.1405413 -1.6325617 1.8693999
0000c0 12 50 f3 3e bf cf 22 40 7d 75 da 3f a4 2b 2e c0
       0.47522026 2.5439298 1.7067105 -2.7214136
0000d0 9d 27 f8 3d fe 3f ac 3f bb 75 a5 3f bf b7 72 bd
       0.12116931 1.3457029 1.2926553 -0.059257265

layer_two.a f4 [1, 14, 1]
000000 21 33 d5 3c 44 cd 92 3c 35 e1 fb bd 32 94 80 3b
       0.026025357 0.017920144 -0.12298814 0.0039239163
000010 13 91 90 3d 48 ac 82 bd 20 0d a5 3d 4f 87 13 3e
       0.07058921 -0.06380516 0.08059144 0.14407085
000020 4d 34 ed 3d 5a e8 2f 3d 9c f6 df 3d 1b 2b 0a 3e
       0.11582241 0.042946197 0.10935709 0.13493006
000030 c4 c7 b4 3d ef 32 08 3e
       0.08827165 0.1330068
