models/model_epoch_300.safetensors (safetensors, 367960 bytes, 4 tensors)

layer_one.W f4 [1433, 64]
000000 24 c0 9e be 2b a2 ba bb 9d 0f 5f 3e d5 25 05 3e
       -0.31005967 -0.0056956015 0.217833 0.13002713
000010 72 ff d9 bc f8 86 92 be cd 16 92 3d 65 13 88 3e
       -0.026611064 -0.28618598 0.07133255 0.26577297
000020 5a ee e5 be c8 7c 14 3e 5d b1 bf 3d 98 06 66 3e
       -0.4490841 0.14500725 0.09360001 0.22463453
000030 a8 b1 c6 bd 8c 4c cb bd af 25 5b ba 5c 06 92 3e
       -0.09701854 -0.099267095 -0.00083598023 0.28520477
000040 26 76 9b be 7e 96 5a 3e e4 8c 40 3e 81 ed 4d 3d
       -0.30363578 0.2134647 0.18803746 0.05027533
000050 9f 13 4c 3e 70 10 5b be 09 ba 4f bd 91 72 93 3e
       0.1992936 -0.21392989 -0.050714526 0.28798345
000060 bd 2e 0e bf 5d 14 8c 3e 0e 34 a6 3e 5f e8 09 be
       -0.55540067 0.27359286 0.3246159 -0.13467549
000070 c1 57 a1 bd 02 53 86 be e2 26 c7 bd 89 54 d3 3e
       -0.07878066 -0.26235205 -0.09724213 0.41275433
000080 c2 1e b4 be 58 60 2c 3d db 7f d6 3d aa cc af 3e
       -0.35179716 0.042084068 0.10473605 0.34335834
000090 ea fc 36 bc 92 b1 15 be 93 e4 25 3e f4 37 61 3e
       -0.011168698 -0.14618519 0.16200475 0.21994
0000a0 98 92 fa be 35 0b e0 3d 88 b0 5f be ac d9 89 3d
       -0.48939967 0.109396376 -0.21844685 0.06730971
0000b0 ad 82 3e bd 91 c9 97 be 58 ab 74 bd 65 6f 88 3e
       -0.04651134 -0.2964597 -0.05973372 0.26647487
0000c0 47 58 f7 be 50 58 e9 3d f5 94 75 3d 17 07 42 bb
       -0.48309538 0.113937974 0.05995651 -0.0029606277
0000d0 4d 7c 22 3d 90 2e 34 be 4d 8f 5a 3d bd d7 56 3e
       0.039669324 -0.17595887 0.05335932 0.20980735
0000e0 ad 0f 84 be 08 9b 87 3e e8 ee 92 3e 45 d0 0f 3c
       -0.2579321 0.26485467 0.28697896 0.008777683
0000f0 da c8 e3 3d ea cc 26 be 41 a5 93 bc e9 bc 45 3e
       0.11122294 -0.16289106 -0.018023135 0.19310345
000100 f1 b1 3d be 58 d0 94 be 99 2b 97 bd ac b2 30 be
       -0.1852491 -0.29065204 -0.073813625 -0.17255658
000110 ef 2a 1c be a5 88 50 bd 4a e6 e9 bd 26 39 b8 3d
       -0.15250753 -0.050911564 -0.11420877 0.08995275
000120 7b a7 07 be 38 0a cd be 63 9f 67 bd 98 47 a5 be
       -0.13247482 -0.4004686 -0.056548487 -0.32281184
000130 6a 1a 5f be 56 f6 85 bd d4 1e 31 3c 38 48 db 3d
       -0.2178742 -0.065411255 0.010810573 0.10707134
000140 a2 50 02 be 68 08 1d be 10 94 8f 3d b0 c7 e3 be
       -0.12726071 -0.15335238 0.070106626 -0.44488287
000150 8c 63 19 be f6 59 5c 3c 0a 4c 72 be e5 83 8d 3e
       -0.1497938 0.013449183 -0.23661819 0.2763969
000160 4a b1 d6 bd da e4 f4 bd 8b 0b 99 be 36 02 b4 be
       -0.10483034 -0.119577125 -0.2989162 -0.35157937
000170 31 90 bb be d5 c5 fa 3c 81 4f 74 be ca 2e cd bd
       -0.36633447 0.030611912 -0.23858453 -0.1001869
000180 c1 4d 93 bd bc f2 2a be 0e 0a 15 bd 71 f5 ae be
       -0.07192565 -0.16694158 -0.036386542 -0.34171632
000190 57 0e 88 be a8 ba 17 3c 1d 84 c7 be a7 de 7d 3d
       -0.2657344 0.009260811 -0.38967982 0.061979916
0001a0 68 e2 7e be 27 57 83 be 49 d1 f4 bd 8b 9f f2 be
       -0.24891055 -0.2565243 -0.119539805 -0.47387347
0001b0 a2 9a 62 be 58 4d ff bd 6b 33 7a be fd d5 4c 3e
       -0.221293 -0.12465924 -0.24433677 0.20003505
0001c0 18 1d 06 be ee 96 21 be d7 4d 87 bd 2c 28 e3 be
       -0.13097036 -0.15780231 -0.06606644 -0.44366586
0001d0 25 14 48 be 57 dd 8b bd 55 3d a1 be 53 0c 32 3e
       -0.19538935 -0.068293266 -0.31492105 0.17387514
0001e0 17 51 20 3b d6 d9 5f 3c 1d 63 9c 3d 19 d3 95 be
       0.0024462396 0.013662776 0.07636092 -0.29262617
0001f0 07 05 58 be 05 bd c0 bd ba c4 1d be 11 e1 68 3d
       -0.21095668 -0.094110526 -0.15407076 0.056855265
000200 fb 4b 48 be 1c ac 46 3e fe cf 23 3c 79 6f 0b 3e
       -0.19560234 0.19401592 0.00999832 0.13616742
000210 71 4e 98 3d c2 fc 48 be fa 4f 06 be e6 27 33 bc
       0.074368365 -0.1962767 -0.13116446 -0.0109348055
000220 41 82 cc bc 0e 89 ba 3e 73 e2 91 3d 50 98 1d be
       -0.024964454 0.3643269 0.0712327 -0.15390134
000230 89 73 4d be 7b 8f 4e be 32 93 1b bd 7b c1 1e 3e
       -0.20063604 -0.20171921 -0.037982173 0.15503494
000240 bc cc cd 3d 47 2d 01 3e 62 f5 43 3e 08 ed 37 3e
       0.100488156 0.12614928 0.19136575 0.17961514
000250 76 ec e6 bd b6 70 33 be 29 d9 3c be 9e de 15 3d
       -0.1127557 -0.17523465 -0.18442215 0.036589257
000260 08 8a 81 be 1d b8 3e 3e 54 6a f6 3d 30 53 90 3d
       -0.25300622 0.18624921 0.12031999 0.07047117
000270 eb ec 0a be ee 36 03 be 06 f5 08 bd b6 a9 06 3e
       -0.1356694 -0.12813923 -0.033436798 0.13150677
000280 86 7d 48 be 25 c4 8f 3e 5c c8 12 3e 1a 2c b0 3d
       -0.19579133 0.28079334 0.14334244 0.08602162
000290 13 6f 2d 3d dc fa b3 be f8 32 29 be a7 f1 8b bd
       0.042342257 -0.35152328 -0.1652335 -0.06833201
0002a0 a8 36 17 bd ca 3a 05 3e 35 d4 9e 3e d1 ac a4 bd
       -0.03691736 0.13010707 0.31021276 -0.080407746
0002b0 e4 ae 42 bd c1 3c fe bd 9e 34 53 3e 1a a6 29 3e
       -0.04753007 -0.12413932 0.2062554 0.16567269
0002c0 1b 9d 77 3c 44 d9 11 3e 48 46 ad 3e d2 2e 48 3c
       0.01511314 0.14243037 0.33842683 0.012218194
0002d0 f8 fa d1 bd b0 78 6b bd c9 f0 fe 3d ea e0 15 3e
       -0.102529466 -0.057488143 0.1244827 0.14636579
0002e0 f7 cf 58 3d b0 b7 95 3e f9 77 70 3e 99 b6 3f 3d
       0.052932706 0.29241705 0.23483266 0.046804998
0002f0 9b 72 88 bc a2 51 9d be 4b 9e 27 be 9a b8 15 3e
       -0.01665621 -0.30726343 -0.16368978 0.14621201
000300 38 eb 8e bd 8f 73 5c bd 0b 77 97 bc dd 3c 96 bd
       -0.06978458 -0.053821143 -0.018489381 -0.073358275
000310 db 68 c4 bd 49 36 18 be a7 4c c2 bd e5 df 15 be
       -0.09590312 -0.14864458 -0.094872765 -0.1463619
000320 cc c1 5e bd 68 9a 66 be 69 a6 a3 bd 69 fd b5 bd
       -0.054384038 -0.22519839 -0.079907246 -0.08886225
000330 8d a2 f4 bd f8 7a 90 bd 81 34 03 be 18 92 f1 3b
       -0.119450666 -0.070547044 -0.12812997 0.007372152
000340 10 0c bd 3c a1 4b 2a be a5 9f 11 bc 86 73 9c 3d
       0.02307704 -0.16630413 -0.00888816 0.07639222
000350 98 49 8e be b3 fe f6 bd 0f 87 33 be 60 b4 df 3d
       -0.27790523 -0.12060299 -0.1753199 0.10923076
000360 bf 79 8e bd db 6b 13 be 2b db c4 3c 3b 28 e8 bd
       -0.06956815 -0.14396612 0.024030289 -0.11335798
000370 97 94 8d bd 39 65 f1 3d 29 a9 0b be fb b0 84 bd
       -0.06913107 0.11786885 -0.13638748 -0.06479069
000380 1e 0a f6 bc 82 f0 49 bd 05 20 f3 bc 79 99 8f be
       -0.030034121 -0.04930163 -0.029678354 -0.28046778
000390 c3 8b 4c be 74 12 f9 3b a5 37 12 3e ac d5 21 bd
       -0.1997519 0.0076010767 0.14279039 -0.039510414
0003a0 25 06 53 bc 31 6c 90 be 1f 2d 4a bd e3 a5 38 be
       -0.012879883 -0.28207543 -0.049359437 -0.18032031
0003b0 0e 09 aa be cf 41 00 be 2d df 56 be 81 fb 38 be
       -0.33210033 -0.12525104 -0.20983572 -0.18064691
0003c0 9f 48 84 3c 96 9d 38 be ff 74 b2 3c dc ea 31 be
       0.01614791 -0.18028864 0.021784304 -0.17374748
0003d0 a9 d0 cc bd 73 35 3c be 37 e4 5e be 84 57 95 bc
       -0.10000736 -0.18379764 -0.21766745 -0.018230207
0003e0 ef 14 da bc 83 73 74 be d3 b6 01 3d 14 4f 1e be
       -0.02662131 -0.23872189 0.031668495 -0.15459853
0003f0 51 55 0e 3d 99 19 24 3b f4 f0 54 be ad fd bb 3d
       0.034749333 0.0025039671 -0.20795041 0.09179244

layer_one.a f4 [8, 16, 1]
000000 bf da b3 3d e4 48 18 be 05 6f 3a 3d ab 1c 38 3e
       0.08781957 -0.14871556 0.045516033 0.17979686
000010 2d bb 32 3f 18 e7 51 3e a5 d1 a4 3e 04 9b 02 be
       0.6981686 0.20498312 0.32191196 -0.12754446
000020 55 5a 4c be 86 6e ce be ad ae 64 bf 84 b1 b9 3e
       -0.19956334 -0.40318698 -0.89329034 0.36268246
000030 cd 0a 73 3f 24 e8 99 3e d7 82 aa be 47 dd b4 be
       0.94938356 0.30059922 -0.33302948 -0.3532507
000040 68 e9 9d 3e 19 19 6a 3e f3 a1 38 3c f8 8f 28 bd
       0.30842137 0.22861136 0.01126908 -0.041152924
000050 9b 9c 78 3e 56 4f dc 3d 4e d7 82 bd 45 8b bf bd
       0.2427849 0.1075732 -0.06388722 -0.093527354
000060 c6 28 17 3f 41 62 df bd df 3e 43 be 78 57 34 bf
       0.5904659 -0.10907412 -0.19066952 -0.70445967
000070 60 47 62 3f d3 61 22 3e a2 84 27 bf 92 7a 01 bf
       0.8839016 0.1585763 -0.65436757 -0.5057765
000080 54 d3 7d 3c 40 20 8f 3e eb 26 08 3d ac 98 40 3e
       0.015492279 0.27954292 0.03324024 0.1880824
000090 37 4a 2c 3f 75 03 85 3e 84 4c bf 3d c3 6c 20 be
       0.6730074 0.259792 0.09340766 -0.1566649
0000a0 ee 53 4b bf d4 df c1 3d 6c 1d 4f bf 21 ef 62 3e
       -0.7942494 0.0946652 -0.8090427 0.22161533
0000b0 4f ac 8e 3f d2 76 95 3e f2 72 56 be 4e 91 f9 be
       1.1146334 0.29192215 -0.20942286 -0.4874367
0000c0 99 a4 ec 3d d7 43 da 3e ae 3a 9a be 0b 4e 28 be
       0.11554832 0.42629883 -0.30122894 -0.16436021
0000d0 eb cd 52 be ab 97 d5 3d b6 07 9f be 91 6a 5e 3d
       -0.20586364 0.10429319 -0.3106057 0.05430085
0000e0 3a a5 69 3f 52 24 b8 3e b1 e6 5e bf ef 92 b0 be
       0.9126774 0.3596521 -0.8707076 -0.344871
0000f0 e3 24 1b 3e 77 23 b8 be fd 96 26 bf ef f9 21 bf
       0.1515079 -0.35964558 -0.6507414 -0.63271993
000100 d9 6a 06 3f ed 41 cf 3e 2e 19 ad 3c 91 aa 53 be
       0.52506787 0.40479985 0.02113017 -0.20670535
000110 2c ca 42 bd ec 1d 5d 3c 1f e9 0a bf 5b f0 91 3c
       -0.047556087 0.013495903 -0.54261965 0.017814806
000120 d6 60 30 3e a2 19 ab 3e 98 a7 4b bf 86 1b 6c be
       0.1722444 0.33417994 -0.795526 -0.23057374
000130 f4 76 3c be 4d c5 84 be aa 5c 81 bf 0d f4 71 bf
       -0.18404752 -0.2593178 -1.0106404 -0.94513017
000140 b3 82 40 3d 98 66 16 3e b7 0c 0a be ad 75 9f be
       0.046999644 0.14687574 -0.13481413 -0.31144467
000150 53 53 81 be 4d 08 9a 3e 19 78 b0 be 78 8c 33 bd
       -0.25258884 0.30084458 -0.34466627 -0.043835133
000160 cc 07 06 bf f4 e9 d0 3e 42 80 2a bf fc 7d 42 bf
       -0.5235565 0.40803492 -0.66601956 -0.75973487
000170 bf 1b d8 be 31 c0 08 3f 98 92 6c be 2a 18 7d bf
       -0.4220867 0.5341826 -0.23102796 -0.98864996
000180 ad f7 da 3d 14 84 b2 3c c8 ab 08 bf 30 f4 44 be
       0.10691772 0.021791495 -0.5338712 -0.19233775
000190 fb 7d bc 3d 1d 37 69 bc b2 39 ab 3c 69 c8 4d bd
       0.09203716 -0.014234331 0.020901535 -0.050239954
0001a0 54 21 98 3e 01 0d 2f bf 36 c7 2d bf 09 3b 98 bf
       0.29712927 -0.6837922 -0.67882097 -1.1893016
0001b0 70 8c b1 3e 85 b5 6b bd 8d aa c8 be 5c 49 1c bf
       0.34677458 -0.057546157 -0.3919262 -0.6104944
0001c0 53 9f 01 3f 12 6a f5 3d ef 5e 41 3e 1d 2f 93 bd
       0.50633734 0.11983122 0.1888387 -0.071867205
0001d0 ee d4 42 be 04 cd 6f bd 79 bc 1b bf 8d 0d 0f be
       -0.19026539 -0.058545128 -0.6083446 -0.13970013
0001e0 08 06 04 3f 5d 11 1f 3f af ae 5e 3d 67 e9 44 bf
       0.515717 0.6213587 0.05436581 -0.76918644
0001f0 10 60 e4 3e 76 e5 86 bd e1 e5 5e bf d6 ee 17 bf
       0.4460454 -0.06586735 -0.8706952 -0.5934881

layer_two.W f4 [8, 7]
000000 16 2a a8 bf 88 e1 9e bf 52 eb 01 40 8f eb 9d bf
       -1.3137844 -1.2412577 2.0299878 -1.2337512
000010 b7 14 44 bf b4 dc 1d 3f 61 fe 94 3f 51 ec dd 3f
       -0.7659411 0.6166489 1.164013 1.7337743
000020 d8 13 d2 bf b2 e9 e3 3f 53 67 8f bf ea cd 99 bf
       -1.6412306 1.7805693 -1.1203407 -1.2015965
000030 4b 06 93 3e cc 33 88 be b4 66 ab 3f ec 34 3f 3f
       0.2871574 -0.26602018 1.3390718 0.7469013
000040 0a 54 9e bf 3c 3b e1 bf 36 2c 0c bf 13 a9 12 3f
       -1.2369397 -1.7596202 -0.5475496 0.57289237
000050 ed df 89 3f ba da e2 3e 1b 73 2a 3f 24 dd 64 bf
       1.0771462 0.443075 0.66581887 -0.89399934
000060 ba a8 da 3f bd ce ca bf 7f 9a b7 3e b9 d0 64 3f
       1.7082741 -1.5844342 0.3586006 0.89380985
000070 fe 98 d0 bf eb 55 a0 3f 4b cd 68 3f d5 3a d5 3f
       -1.629669 1.252622 0.9093825 1.6658579
000080 5e fc f2 bf dc 62 ab bf f9 0b 98 bf db 61 c9 bf
       -1.8983266 -1.3389544 -1.1878654 -1.5732988
000090 19 39 8c 3f ee 74 d7 3f 68 79 e3 bf 98 2b 9a bf
       1.0954925 1.6832559 -1.7771425 -1.2044554
0000a0 23 1c 39 3f 7a 69 b2 bd 83 6e 82 3d ff e1 55 3f
       0.7230856 -0.08711524 0.06368735 0.8354797
0000b0 58 85 8c bf ae 6a f2 3f 23 6d 54 bf dd aa 2a 3f
       -1.0978193 1.8938806 -0.8297903 0.66666967
0000c0 ac f6 4a 3e c5 cb d9 3f 27 d9 66 3f 55 a4 f3 bf
       0.1982066 1.701531 0.901751 -1.9034525
0000d0 68 73 18 3f f6 26 52 3f f3 dd 1f 3f da 93 95 3d
       0.59551096 0.820907 0.6244804 0.07303591

layer_two.a f4 [1, 14, 1]
000000 b6 1f b9 bd 8e 20 74 be 13 d9 82 3e b7 84 03 be
       -0.090392515 -0.23840544 0.2555624 -0.12843595
000010 a9 99 6a 3e 11 2e 87 bd 07 34 0b be 42 6c 8f 3e
       0.22910179 -0.06600583 -0.13594066 0.28012282
000020 fa 13 06 3e 38 b7 2c 3f b2 50 d2 3e de 74 28 3f
       0.13093558 0.6746707 0.4107719 0.65803325
000030 a6 bc e0 bd 80 69 4c bc
       -0.10973482 -0.012476325
